…
'num_workers': 4, 'model_dir': 'logs/BLiSS', 'log_file': 'log.txt', 'lr': 0.001, 'weight_decay': 1e-07, 'nms_thresh': 0.4, 'print_freq': 5, 'eval_freq': 1, 'suffix': '', 'checkpoint': None, 'test': False, 'num_input_video': 512, 'num_input_text': 768, 'num_feature': 512, 'num_hidden': 128, 'dropout_video': 0.1, 'dropout_text': 0.1, 'dropout_attn': 0.1, 'dropout_fc': 0.5, 'num_layers': 6, 'lambda_contrastive_inter': 0.01, 'lambda_contrastive_intra': 0.001, 'ratio': 4}
[2024-03-22 11:03:52,178] Using default tokenizer.
[2024-03-22 11:29:51,779] 
Model_BLiSS(
  (proj_fc_video): Sequential(
    (0): Linear(in_features=512, out_features=128, bias=True)
    (1): Dropout(p=0.1, inplace=False)
  )
  (proj_fc_text): Sequential(
    (0): Linear(in_features=768, out_features=128, bias=True)
    (1): Dropout(p=0.1, inplace=False)
  )
  (multiway_list): ModuleList(
    (0): MultiWayTransformer(
      (norm1_fused): LayerNorm((128,), eps=1e-05, elementwise_affine=True)
      (attn_fusion): MultiHeadAttention(q_dims=128, k_dims=128, v_dims=128, h_dims=128, o_dims=128, heads=8, p=0.1, bias=True)
      (norm2_video): LayerNorm((128,), eps=1e-05, elementwise_affine=True)
      (ffn_video): FFN(
        (fc1): Linear(in_features=128, out_features=512, bias=True)
        (act): GELU(approximate=none)
        (drop1): Dropout(p=0.1, inplace=False)
        (fc2): Linear(in_features=512, out_features=128, bias=True)
        (drop2): Dropout(p=0.1, inplace=False)
      )
      (norm2_text): LayerNorm((128,), eps=1e-05, elementwise_affine=True)
      (ffn_text): FFN(
        (fc1): Linear(in_features=128, out_features=512, bias=True)
        (act): GELU(approximate=none)
        (drop1): Dropout(p=0.1, inplace=False)
        (fc2): Linear(in_features=512, out_features=128, bias=True)
        (drop2): Dropout(p=0.1, inplace=False)
      )
    )
    (1): MultiWayTransformer(
      (norm1_fused): LayerNorm((128,), eps=1e-05, elementwise_affine=True)
      (attn_fusion): MultiHeadAttention(q_dims=128, k_dims=128, v_dims=128, h_dims=128, o_dims=128, heads=8, p=0.1, bias=True)
      (norm2_video): LayerNorm((128,), eps=1e-05, elementwise_affine=True)
      (ffn_video): FFN(
        (fc1): Linear(in_features=128, out_features=512, bias=True)
        (act): GELU(approximate=none)
        (drop1): Dropout(p=0.1, inplace=False)
        (fc2): Linear(in_features=512, out_features=128, bias=True)
        (drop2): Dropout(p=0.1, inplace=False)
      )
      (norm2_text): LayerNorm((128,), eps=1e-05, elementwise_affine=True)
      (ffn_text): FFN(
        (fc1): Linear(in_features=128, out_features=512, bias=True)
        (act): GELU(approximate=none)
        (drop1): Dropout(p=0.1, inplace=False)
        (fc2): Linear(in_features=512, out_features=128, bias=True)
        (drop2): Dropout(p=0.1, inplace=False)
      )
    )
    (2): MultiWayTransformer(
      (norm1_fused): LayerNorm((128,), eps=1e-05, elementwise_affine=True)
      (attn_fusion): MultiHeadAttention(q_dims=128, k_dims=128, v_dims=128, h_dims=128, o_dims=128, heads=8, p=0.1, bias=True)
      (norm2_video): LayerNorm((128,), eps=1e-05, elementwise_affine=True)
      (ffn_video): FFN(
        (fc1): Linear(in_features=128, out_features=512, bias=True)
        (act): GELU(approximate=none)
        (drop1): Dropout(p=0.1, inplace=False)
        (fc2): Linear(in_features=512, out_features=128, bias=True)
        (drop2): Dropout(p=0.1, inplace=False)
      )
      (norm2_text): LayerNorm((128,), eps=1e-05, elementwise_affine=True)
      (ffn_text): FFN(
        (fc1): Linear(in_features=128, out_features=512, bias=True)
        (act): GELU(approximate=none)
        (drop1): Dropout(p=0.1, inplace=False)
        (fc2): Linear(in_features=512, out_features=128, bias=True)
        (drop2): Dropout(p=0.1, inplace=False)
      )
    )
    (3): MultiWayTransformer(
      (norm1_fused): LayerNorm((128,), eps=1e-05, elementwise_affine=True)
      (attn_fusion): MultiHeadAttention(q_dims=128, k_dims=128, v_dims=128, h_dims=128, o_dims=128, heads=8, p=0.1, bias=True)
      (norm2_video): LayerNorm((128,), eps=1e-05, elementwise_affine=True)
      (ffn_video): FFN(
        (fc1): Linear(in_features=128, out_features=512, bias=True)
        (act): GELU(approximate=none)
        (drop1): Dropout(p=0.1, inplace=False)
        (fc2): Linear(in_features=512, out_features=128, bias=True)
        (drop2): Dropout(p=0.1, inplace=False)
      )
      (norm2_text): LayerNorm((128,), eps=1e-05, elementwise_affine=True)
      (ffn_text): FFN(
        (fc1): Linear(in_features=128, out_features=512, bias=True)
        (act): GELU(approximate=none)
        (drop1): Dropout(p=0.1, inplace=False)
        (fc2): Linear(in_features=512, out_features=128, bias=True)
        (drop2): Dropout(p=0.1, inplace=False)
      )
    )
    (4): MultiWayTransformer(
      (norm1_fused): LayerNorm((128,), eps=1e-05, elementwise_affine=True)
      (attn_fusion): MultiHeadAttention(q_dims=128, k_dims=128, v_dims=128, h_dims=128, o_dims=128, heads=8, p=0.1, bias=True)
      (norm2_video): LayerNorm((128,), eps=1e-05, elementwise_affine=True)
      (ffn_video): FFN(
        (fc1): Linear(in_features=128, out_features=512, bias=True)
        (act): GELU(approximate=none)
        (drop1): Dropout(p=0.1, inplace=False)
        (fc2): Linear(in_features=512, out_features=128, bias=True)
        (drop2): Dropout(p=0.1, inplace=False)
      )
      (norm2_text): LayerNorm((128,), eps=1e-05, elementwise_affine=True)
      (ffn_text): FFN(
        (fc1): Linear(in_features=128, out_features=512, bias=True)
        (act): GELU(approximate=none)
        (drop1): Dropout(p=0.1, inplace=False)
        (fc2): Linear(in_features=512, out_features=128, bias=True)
        (drop2): Dropout(p=0.1, inplace=False)
      )
    )
    (5): MultiWayTransformer(
      (norm1_fused): LayerNorm((128,), eps=1e-05, elementwise_affine=True)
      (attn_fusion): MultiHeadAttention(q_dims=128, k_dims=128, v_dims=128, h_dims=128, o_dims=128, heads=8, p=0.1, bias=True)
      (norm2_video): LayerNorm((128,), eps=1e-05, elementwise_affine=True)
      (ffn_video): FFN(
        (fc1): Linear(in_features=128, out_features=512, bias=True)
        (act): GELU(approximate=none)
        (drop1): Dropout(p=0.1, inplace=False)
        (fc2): Linear(in_features=512, out_features=128, bias=True)
        (drop2): Dropout(p=0.1, inplace=False)
      )
      (norm2_text): LayerNorm((128,), eps=1e-05, elementwise_affine=True)
      (ffn_text): FFN(
        (fc1): Linear(in_features=128, out_features=512, bias=True)
        (act): GELU(approximate=none)
        (drop1): Dropout(p=0.1, inplace=False)
        (fc2): Linear(in_features=512, out_features=128, bias=True)
        (drop2): Dropout(p=0.1, inplace=False)
      )
    )
  )
  (norm_video): LayerNorm((128,), eps=1e-05, elementwise_affine=True)
  (norm_text): LayerNorm((128,), eps=1e-05, elementwise_affine=True)
  (fc_video): Sequential(
    (0): Linear(in_features=128, out_features=128, bias=True)
    (1): ReLU(inplace=True)
    (2): Dropout(p=0.5, inplace=False)
    (3): Linear(in_features=128, out_features=1, bias=True)
  )
  (fc_text): Sequential(
    (0): Linear(in_features=128, out_features=128, bias=True)
    (1): ReLU(inplace=True)
    (2): Dropout(p=0.5, inplace=False)
    (3): Linear(in_features=128, out_features=1, bias=True)
  )
)
[2024-03-26 05:55:42,969] {'dataset': 'BLiSS', 'data_root': 'data', 'device': 'cuda', 'seed': 12345, 'max_epoch': 50, 'start_epoch': 0, 'batch_size': 64, 'num_workers': 4, 'model_dir': 'logs/BLiSS', 'log_file': 'log.txt', 'lr': 0.001, 'weight_decay': 1e-07, 'nms_thresh': 0.4, 'print_freq': 5, 'eval_freq': 1, 'suffix': '', 'checkpoint': None, 'test': False, 'num_input_video': 512, 'num_input_text': 768, 'num_feature': 512, 'num_hidden': 128, 'dropout_video': 0.1, 'dropout_text': 0.1, 'dropout_attn': 0.1, 'dropout_fc': 0.5, 'num_layers': 6, 'lambda_contrastive_inter': 0.01, 'lambda_contrastive_intra': 0.001, 'ratio': 4}
[2024-03-26 05:55:53,598] Using default tokenizer.
[2024-03-26 06:06:17,919] 
Model_BLiSS(
  (proj_fc_video): Sequential(
    (0): Linear(in_features=512, out_features=128, bias=True)
    (1): Dropout(p=0.1, inplace=False)
  )
  (proj_fc_text): Sequential(
    (0): Linear(in_features=768, out_features=128, bias=True)
    (1): Dropout(p=0.1, inplace=False)
  )
  (multiway_list): ModuleList(
    (0): MultiWayTransformer(
      (norm1_fused): LayerNorm((128,), eps=1e-05, elementwise_affine=True)
      (attn_fusion): MultiHeadAttention(q_dims=128, k_dims=128, v_dims=128, h_dims=128, o_dims=128, heads=8, p=0.1, bias=True)
      (norm2_video): LayerNorm((128,), eps=1e-05, elementwise_affine=True)
      (ffn_video): FFN(
        (fc1): Linear(in_features=128, out_features=512, bias=True)
        (act): GELU(approximate=none)
        (drop1): Dropout(p=0.1, inplace=False)
        (fc2): Linear(in_features=512, out_features=128, bias=True)
        (drop2): Dropout(p=0.1, inplace=False)
      )
      (norm2_text): LayerNorm((128,), eps=1e-05, elementwise_affine=True)
      (ffn_text): FFN(
        (fc1): Linear(in_features=128, out_features=512, bias=True)
        (act): GELU(approximate=none)
        (drop1): Dropout(p=0.1, inplace=False)
        (fc2): Linear(in_features=512, out_features=128, bias=True)
        (drop2): Dropout(p=0.1, inplace=False)
      )
    )
    (1): MultiWayTransformer(
      (norm1_fused): LayerNorm((128,), eps=1e-05, elementwise_affine=True)
      (attn_fusion): MultiHeadAttention(q_dims=128, k_dims=128, v_dims=128, h_dims=128, o_dims=128, heads=8, p=0.1, bias=True)
      (norm2_video): LayerNorm((128,), eps=1e-05, elementwise_affine=True)
      (ffn_video): FFN(
        (fc1): Linear(in_features=128, out_features=512, bias=True)
        (act): GELU(approximate=none)
        (drop1): Dropout(p=0.1, inplace=False)
        (fc2): Linear(in_features=512, out_features=128, bias=True)
        (drop2): Dropout(p=0.1, inplace=False)
      )
      (norm2_text): LayerNorm((128,), eps=1e-05, elementwise_affine=True)
      (ffn_text): FFN(
        (fc1): Linear(in_features=128, out_features=512, bias=True)
        (act): GELU(approximate=none)
        (drop1): Dropout(p=0.1, inplace=False)
        (fc2): Linear(in_features=512, out_features=128, bias=True)
        (drop2): Dropout(p=0.1, inplace=False)
      )
    )
    (2): MultiWayTransformer(
      (norm1_fused): LayerNorm((128,), eps=1e-05, elementwise_affine=True)
      (attn_fusion): MultiHeadAttention(q_dims=128, k_dims=128, v_dims=128, h_dims=128, o_dims=128, heads=8, p=0.1, bias=True)
      (norm2_video): LayerNorm((128,), eps=1e-05, elementwise_affine=True)
      (ffn_video): FFN(
        (fc1): Linear(in_features=128, out_features=512, bias=True)
        (act): GELU(approximate=none)
        (drop1): Dropout(p=0.1, inplace=False)
        (fc2): Linear(in_features=512, out_features=128, bias=True)
        (drop2): Dropout(p=0.1, inplace=False)
      )
      (norm2_text): LayerNorm((128,), eps=1e-05, elementwise_affine=True)
      (ffn_text): FFN(
        (fc1): Linear(in_features=128, out_features=512, bias=True)
        (act): GELU(approximate=none)
        (drop1): Dropout(p=0.1, inplace=False)
        (fc2): Linear(in_features=512, out_features=128, bias=True)
        (drop2): Dropout(p=0.1, inplace=False)
      )
    )
    (3): MultiWayTransformer(
      (norm1_fused): LayerNorm((128,), eps=1e-05, elementwise_affine=True)
      (attn_fusion): MultiHeadAttention(q_dims=128, k_dims=128, v_dims=128, h_dims=128, o_dims=128, heads=8, p=0.1, bias=True)
      (norm2_video): LayerNorm((128,), eps=1e-05, elementwise_affine=True)
      (ffn_video): FFN(
        (fc1): Linear(in_features=128, out_features=512, bias=True)
        (act): GELU(approximate=none)
        (drop1): Dropout(p=0.1, inplace=False)
        (fc2): Linear(in_features=512, out_features=128, bias=True)
        (drop2): Dropout(p=0.1, inplace=False)
      )
      (norm2_text): LayerNorm((128,), eps=1e-05, elementwise_affine=True)
      (ffn_text): FFN(
        (fc1): Linear(in_features=128, out_features=512, bias=True)
        (act): GELU(approximate=none)
        (drop1): Dropout(p=0.1, inplace=False)
        (fc2): Linear(in_features=512, out_features=128, bias=True)
        (drop2): Dropout(p=0.1, inplace=False)
      )
    )
    (4): MultiWayTransformer(
      (norm1_fused): LayerNorm((128,), eps=1e-05, elementwise_affine=True)
      (attn_fusion): MultiHeadAttention(q_dims=128, k_dims=128, v_dims=128, h_dims=128, o_dims=128, heads=8, p=0.1, bias=True)
      (norm2_video): LayerNorm((128,), eps=1e-05, elementwise_affine=True)
      (ffn_video): FFN(
        (fc1): Linear(in_features=128, out_features=512, bias=True)
        (act): GELU(approximate=none)
        (drop1): Dropout(p=0.1, inplace=False)
        (fc2): Linear(in_features=512, out_features=128, bias=True)
        (drop2): Dropout(p=0.1, inplace=False)
      )
      (norm2_text): LayerNorm((128,), eps=1e-05, elementwise_affine=True)
      (ffn_text): FFN(
        (fc1): Linear(in_features=128, out_features=512, bias=True)
        (act): GELU(approximate=none)
        (drop1): Dropout(p=0.1, inplace=False)
        (fc2): Linear(in_features=512, out_features=128, bias=True)
        (drop2): Dropout(p=0.1, inplace=False)
      )
    )
    (5): MultiWayTransformer(
      (norm1_fused): LayerNorm((128,), eps=1e-05, elementwise_affine=True)
      (attn_fusion): MultiHeadAttention(q_dims=128, k_dims=128, v_dims=128, h_dims=128, o_dims=128, heads=8, p=0.1, bias=True)
      (norm2_video): LayerNorm((128,), eps=1e-05, elementwise_affine=True)
      (ffn_video): FFN(
        (fc1): Linear(in_features=128, out_features=512, bias=True)
        (act): GELU(approximate=none)
        (drop1): Dropout(p=0.1, inplace=False)
        (fc2): Linear(in_features=512, out_features=128, bias=True)
        (drop2): Dropout(p=0.1, inplace=False)
      )
      (norm2_text): LayerNorm((128,), eps=1e-05, elementwise_affine=True)
      (ffn_text): FFN(
        (fc1): Linear(in_features=128, out_features=512, bias=True)
        (act): GELU(approximate=none)
        (drop1): Dropout(p=0.1, inplace=False)
        (fc2): Linear(in_features=512, out_features=128, bias=True)
        (drop2): Dropout(p=0.1, inplace=False)
      )
    )
  )
  (norm_video): LayerNorm((128,), eps=1e-05, elementwise_affine=True)
  (norm_text): LayerNorm((128,), eps=1e-05, elementwise_affine=True)
  (fc_video): Sequential(
    (0): Linear(in_features=128, out_features=128, bias=True)
    (1): ReLU(inplace=True)
    (2): Dropout(p=0.5, inplace=False)
    (3): Linear(in_features=128, out_features=1, bias=True)
  )
  (fc_text): Sequential(
    (0): Linear(in_features=128, out_features=128, bias=True)
    (1): ReLU(inplace=True)
    (2): Dropout(p=0.5, inplace=False)
    (3): Linear(in_features=128, out_features=1, bias=True)
  )
)
[2024-03-26 06:18:48,926] {'dataset': 'BLiSS', 'data_root': 'data', 'device': 'cuda', 'seed': 12345, 'max_epoch': 50, 'start_epoch': 0, 'batch_size': 64, 'num_workers': 4, 'model_dir': 'logs/BLiSS', 'log_file': 'log.txt', 'lr': 0.001, 'weight_decay': 1e-07, 'nms_thresh': 0.4, 'print_freq': 5, 'eval_freq': 1, 'suffix': '', 'checkpoint': None, 'test': False, 'num_input_video': 512, 'num_input_text': 768, 'num_feature': 512, 'num_hidden': 128, 'dropout_video': 0.1, 'dropout_text': 0.1, 'dropout_attn': 0.1, 'dropout_fc': 0.5, 'num_layers': 6, 'lambda_contrastive_inter': 0.01, 'lambda_contrastive_intra': 0.001, 'ratio': 4}
[2024-03-26 06:18:53,506] Using default tokenizer.
[2024-03-26 06:30:34,721] 
Model_BLiSS(
  (proj_fc_video): Sequential(
    (0): Linear(in_features=512, out_features=128, bias=True)
    (1): Dropout(p=0.1, inplace=False)
  )
  (proj_fc_text): Sequential(
    (0): Linear(in_features=768, out_features=128, bias=True)
    (1): Dropout(p=0.1, inplace=False)
  )
  (multiway_list): ModuleList(
    (0): MultiWayTransformer(
      (norm1_fused): LayerNorm((128,), eps=1e-05, elementwise_affine=True)
      (attn_fusion): MultiHeadAttention(q_dims=128, k_dims=128, v_dims=128, h_dims=128, o_dims=128, heads=8, p=0.1, bias=True)
      (norm2_video): LayerNorm((128,), eps=1e-05, elementwise_affine=True)
      (ffn_video): FFN(
        (fc1): Linear(in_features=128, out_features=512, bias=True)
        (act): GELU(approximate=none)
        (drop1): Dropout(p=0.1, inplace=False)
        (fc2): Linear(in_features=512, out_features=128, bias=True)
        (drop2): Dropout(p=0.1, inplace=False)
      )
      (norm2_text): LayerNorm((128,), eps=1e-05, elementwise_affine=True)
      (ffn_text): FFN(
        (fc1): Linear(in_features=128, out_features=512, bias=True)
        (act): GELU(approximate=none)
        (drop1): Dropout(p=0.1, inplace=False)
        (fc2): Linear(in_features=512, out_features=128, bias=True)
        (drop2): Dropout(p=0.1, inplace=False)
      )
    )
    (1): MultiWayTransformer(
      (norm1_fused): LayerNorm((128,), eps=1e-05, elementwise_affine=True)
      (attn_fusion): MultiHeadAttention(q_dims=128, k_dims=128, v_dims=128, h_dims=128, o_dims=128, heads=8, p=0.1, bias=True)
      (norm2_video): LayerNorm((128,), eps=1e-05, elementwise_affine=True)
      (ffn_video): FFN(
        (fc1): Linear(in_features=128, out_features=512, bias=True)
        (act): GELU(approximate=none)
        (drop1): Dropout(p=0.1, inplace=False)
        (fc2): Linear(in_features=512, out_features=128, bias=True)
        (drop2): Dropout(p=0.1, inplace=False)
      )
      (norm2_text): LayerNorm((128,), eps=1e-05, elementwise_affine=True)
      (ffn_text): FFN(
        (fc1): Linear(in_features=128, out_features=512, bias=True)
        (act): GELU(approximate=none)
        (drop1): Dropout(p=0.1, inplace=False)
        (fc2): Linear(in_features=512, out_features=128, bias=True)
        (drop2): Dropout(p=0.1, inplace=False)
      )
    )
    (2): MultiWayTransformer(
      (norm1_fused): LayerNorm((128,), eps=1e-05, elementwise_affine=True)
      (attn_fusion): MultiHeadAttention(q_dims=128, k_dims=128, v_dims=128, h_dims=128, o_dims=128, heads=8, p=0.1, bias=True)
      (norm2_video): LayerNorm((128,), eps=1e-05, elementwise_affine=True)
      (ffn_video): FFN(
        (fc1): Linear(in_features=128, out_features=512, bias=True)
        (act): GELU(approximate=none)
        (drop1): Dropout(p=0.1, inplace=False)
        (fc2): Linear(in_features=512, out_features=128, bias=True)
        (drop2): Dropout(p=0.1, inplace=False)
      )
      (norm2_text): LayerNorm((128,), eps=1e-05, elementwise_affine=True)
      (ffn_text): FFN(
        (fc1): Linear(in_features=128, out_features=512, bias=True)
        (act): GELU(approximate=none)
        (drop1): Dropout(p=0.1, inplace=False)
        (fc2): Linear(in_features=512, out_features=128, bias=True)
        (drop2): Dropout(p=0.1, inplace=False)
      )
    )
    (3): MultiWayTransformer(
      (norm1_fused): LayerNorm((128,), eps=1e-05, elementwise_affine=True)
      (attn_fusion): MultiHeadAttention(q_dims=128, k_dims=128, v_dims=128, h_dims=128, o_dims=128, heads=8, p=0.1, bias=True)
      (norm2_video): LayerNorm((128,), eps=1e-05, elementwise_affine=True)
      (ffn_video): FFN(
        (fc1): Linear(in_features=128, out_features=512, bias=True)
        (act): GELU(approximate=none)
        (drop1): Dropout(p=0.1, inplace=False)
        (fc2): Linear(in_features=512, out_features=128, bias=True)
        (drop2): Dropout(p=0.1, inplace=False)
      )
      (norm2_text): LayerNorm((128,), eps=1e-05, elementwise_affine=True)
      (ffn_text): FFN(
        (fc1): Linear(in_features=128, out_features=512, bias=True)
        (act): GELU(approximate=none)
        (drop1): Dropout(p=0.1, inplace=False)
        (fc2): Linear(in_features=512, out_features=128, bias=True)
        (drop2): Dropout(p=0.1, inplace=False)
      )
    )
    (4): MultiWayTransformer(
      (norm1_fused): LayerNorm((128,), eps=1e-05, elementwise_affine=True)
      (attn_fusion): MultiHeadAttention(q_dims=128, k_dims=128, v_dims=128, h_dims=128, o_dims=128, heads=8, p=0.1, bias=True)
      (norm2_video): LayerNorm((128,), eps=1e-05, elementwise_affine=True)
      (ffn_video): FFN(
        (fc1): Linear(in_features=128, out_features=512, bias=True)
        (act): GELU(approximate=none)
        (drop1): Dropout(p=0.1, inplace=False)
        (fc2): Linear(in_features=512, out_features=128, bias=True)
        (drop2): Dropout(p=0.1, inplace=False)
      )
      (norm2_text): LayerNorm((128,), eps=1e-05, elementwise_affine=True)
      (ffn_text): FFN(
        (fc1): Linear(in_features=128, out_features=512, bias=True)
        (act): GELU(approximate=none)
        (drop1): Dropout(p=0.1, inplace=False)
        (fc2): Linear(in_features=512, out_features=128, bias=True)
        (drop2): Dropout(p=0.1, inplace=False)
      )
    )
    (5): MultiWayTransformer(
      (norm1_fused): LayerNorm((128,), eps=1e-05, elementwise_affine=True)
      (attn_fusion): MultiHeadAttention(q_dims=128, k_dims=128, v_dims=128, h_dims=128, o_dims=128, heads=8, p=0.1, bias=True)
      (norm2_video): LayerNorm((128,), eps=1e-05, elementwise_affine=True)
      (ffn_video): FFN(
        (fc1): Linear(in_features=128, out_features=512, bias=True)
        (act): GELU(approximate=none)
        (drop1): Dropout(p=0.1, inplace=False)
        (fc2): Linear(in_features=512, out_features=128, bias=True)
        (drop2): Dropout(p=0.1, inplace=False)
      )
      (norm2_text): LayerNorm((128,), eps=1e-05, elementwise_affine=True)
      (ffn_text): FFN(
        (fc1): Linear(in_features=128, out_features=512, bias=True)
        (act): GELU(approximate=none)
        (drop1): Dropout(p=0.1, inplace=False)
        (fc2): Linear(in_features=512, out_features=128, bias=True)
        (drop2): Dropout(p=0.1, inplace=False)
      )
    )
  )
  (norm_video): LayerNorm((128,), eps=1e-05, elementwise_affine=True)
  (norm_text): LayerNorm((128,), eps=1e-05, elementwise_affine=True)
  (fc_video): Sequential(
    (0): Linear(in_features=128, out_features=128, bias=True)
    (1): ReLU(inplace=True)
    (2): Dropout(p=0.5, inplace=False)
    (3): Linear(in_features=128, out_features=1, bias=True)
  )
  (fc_text): Sequential(
    (0): Linear(in_features=128, out_features=128, bias=True)
    (1): ReLU(inplace=True)
    (2): Dropout(p=0.5, inplace=False)
    (3): Linear(in_features=128, out_features=1, bias=True)
  )
)
[2024-03-26 06:34:01,889] {'dataset': 'BLiSS', 'data_root': 'data', 'device': 'cuda', 'seed': 12345, 'max_epoch': 50, 'start_epoch': 0, 'batch_size': 64, 'num_workers': 4, 'model_dir': 'logs/BLiSS', 'log_file': 'log.txt', 'lr': 0.001, 'weight_decay': 1e-07, 'nms_thresh': 0.4, 'print_freq': 5, 'eval_freq': 1, 'suffix': '', 'checkpoint': None, 'test': False, 'num_input_video': 512, 'num_input_text': 768, 'num_feature': 512, 'num_hidden': 128, 'dropout_video': 0.1, 'dropout_text': 0.1, 'dropout_attn': 0.1, 'dropout_fc': 0.5, 'num_layers': 6, 'lambda_contrastive_inter': 0.01, 'lambda_contrastive_intra': 0.001, 'ratio': 4}
[2024-03-26 06:34:10,177] Using default tokenizer.
[2024-03-26 06:51:22,499] 
Model_BLiSS(
  (proj_fc_video): Sequential(
    (0): Linear(in_features=512, out_features=128, bias=True)
    (1): Dropout(p=0.1, inplace=False)
  )
  (proj_fc_text): Sequential(
    (0): Linear(in_features=768, out_features=128, bias=True)
    (1): Dropout(p=0.1, inplace=False)
  )
  (multiway_list): ModuleList(
    (0): MultiWayTransformer(
      (norm1_fused): LayerNorm((128,), eps=1e-05, elementwise_affine=True)
      (attn_fusion): MultiHeadAttention(q_dims=128, k_dims=128, v_dims=128, h_dims=128, o_dims=128, heads=8, p=0.1, bias=True)
      (norm2_video): LayerNorm((128,), eps=1e-05, elementwise_affine=True)
      (ffn_video): FFN(
        (fc1): Linear(in_features=128, out_features=512, bias=True)
        (act): GELU(approximate=none)
        (drop1): Dropout(p=0.1, inplace=False)
        (fc2): Linear(in_features=512, out_features=128, bias=True)
        (drop2): Dropout(p=0.1, inplace=False)
      )
      (norm2_text): LayerNorm((128,), eps=1e-05, elementwise_affine=True)
      (ffn_text): FFN(
        (fc1): Linear(in_features=128, out_features=512, bias=True)
        (act): GELU(approximate=none)
        (drop1): Dropout(p=0.1, inplace=False)
        (fc2): Linear(in_features=512, out_features=128, bias=True)
        (drop2): Dropout(p=0.1, inplace=False)
      )
    )
    (1): MultiWayTransformer(
      (norm1_fused): LayerNorm((128,), eps=1e-05, elementwise_affine=True)
      (attn_fusion): MultiHeadAttention(q_dims=128, k_dims=128, v_dims=128, h_dims=128, o_dims=128, heads=8, p=0.1, bias=True)
      (norm2_video): LayerNorm((128,), eps=1e-05, elementwise_affine=True)
      (ffn_video): FFN(
        (fc1): Linear(in_features=128, out_features=512, bias=True)
        (act): GELU(approximate=none)
        (drop1): Dropout(p=0.1, inplace=False)
        (fc2): Linear(in_features=512, out_features=128, bias=True)
        (drop2): Dropout(p=0.1, inplace=False)
      )
      (norm2_text): LayerNorm((128,), eps=1e-05, elementwise_affine=True)
      (ffn_text): FFN(
        (fc1): Linear(in_features=128, out_features=512, bias=True)
        (act): GELU(approximate=none)
        (drop1): Dropout(p=0.1, inplace=False)
        (fc2): Linear(in_features=512, out_features=128, bias=True)
        (drop2): Dropout(p=0.1, inplace=False)
      )
    )
    (2): MultiWayTransformer(
      (norm1_fused): LayerNorm((128,), eps=1e-05, elementwise_affine=True)
      (attn_fusion): MultiHeadAttention(q_dims=128, k_dims=128, v_dims=128, h_dims=128, o_dims=128, heads=8, p=0.1, bias=True)
      (norm2_video): LayerNorm((128,), eps=1e-05, elementwise_affine=True)
      (ffn_video): FFN(
        (fc1): Linear(in_features=128, out_features=512, bias=True)
        (act): GELU(approximate=none)
        (drop1): Dropout(p=0.1, inplace=False)
        (fc2): Linear(in_features=512, out_features=128, bias=True)
        (drop2): Dropout(p=0.1, inplace=False)
      )
      (norm2_text): LayerNorm((128,), eps=1e-05, elementwise_affine=True)
      (ffn_text): FFN(
        (fc1): Linear(in_features=128, out_features=512, bias=True)
        (act): GELU(approximate=none)
        (drop1): Dropout(p=0.1, inplace=False)
        (fc2): Linear(in_features=512, out_features=128, bias=True)
        (drop2): Dropout(p=0.1, inplace=False)
      )
    )
    (3): MultiWayTransformer(
      (norm1_fused): LayerNorm((128,), eps=1e-05, elementwise_affine=True)
      (attn_fusion): MultiHeadAttention(q_dims=128, k_dims=128, v_dims=128, h_dims=128, o_dims=128, heads=8, p=0.1, bias=True)
      (norm2_video): LayerNorm((128,), eps=1e-05, elementwise_affine=True)
      (ffn_video): FFN(
        (fc1): Linear(in_features=128, out_features=512, bias=True)
        (act): GELU(approximate=none)
        (drop1): Dropout(p=0.1, inplace=False)
        (fc2): Linear(in_features=512, out_features=128, bias=True)
        (drop2): Dropout(p=0.1, inplace=False)
      )
      (norm2_text): LayerNorm((128,), eps=1e-05, elementwise_affine=True)
      (ffn_text): FFN(
        (fc1): Linear(in_features=128, out_features=512, bias=True)
        (act): GELU(approximate=none)
        (drop1): Dropout(p=0.1, inplace=False)
        (fc2): Linear(in_features=512, out_features=128, bias=True)
        (drop2): Dropout(p=0.1, inplace=False)
      )
    )
    (4): MultiWayTransformer(
      (norm1_fused): LayerNorm((128,), eps=1e-05, elementwise_affine=True)
      (attn_fusion): MultiHeadAttention(q_dims=128, k_dims=128, v_dims=128, h_dims=128, o_dims=128, heads=8, p=0.1, bias=True)
      (norm2_video): LayerNorm((128,), eps=1e-05, elementwise_affine=True)
      (ffn_video): FFN(
        (fc1): Linear(in_features=128, out_features=512, bias=True)
        (act): GELU(approximate=none)
        (drop1): Dropout(p=0.1, inplace=False)
        (fc2): Linear(in_features=512, out_features=128, bias=True)
        (drop2): Dropout(p=0.1, inplace=False)
      )
      (norm2_text): LayerNorm((128,), eps=1e-05, elementwise_affine=True)
      (ffn_text): FFN(
        (fc1): Linear(in_features=128, out_features=512, bias=True)
        (act): GELU(approximate=none)
        (drop1): Dropout(p=0.1, inplace=False)
        (fc2): Linear(in_features=512, out_features=128, bias=True)
        (drop2): Dropout(p=0.1, inplace=False)
      )
    )
    (5): MultiWayTransformer(
      (norm1_fused): LayerNorm((128,), eps=1e-05, elementwise_affine=True)
      (attn_fusion): MultiHeadAttention(q_dims=128, k_dims=128, v_dims=128, h_dims=128, o_dims=128, heads=8, p=0.1, bias=True)
      (norm2_video): LayerNorm((128,), eps=1e-05, elementwise_affine=True)
      (ffn_video): FFN(
        (fc1): Linear(in_features=128, out_features=512, bias=True)
        (act): GELU(approximate=none)
        (drop1): Dropout(p=0.1, inplace=False)
        (fc2): Linear(in_features=512, out_features=128, bias=True)
        (drop2): Dropout(p=0.1, inplace=False)
      )
      (norm2_text): LayerNorm((128,), eps=1e-05, elementwise_affine=True)
      (ffn_text): FFN(
        (fc1): Linear(in_features=128, out_features=512, bias=True)
        (act): GELU(approximate=none)
        (drop1): Dropout(p=0.1, inplace=False)
        (fc2): Linear(in_features=512, out_features=128, bias=True)
        (drop2): Dropout(p=0.1, inplace=False)
      )
    )
  )
  (norm_video): LayerNorm((128,), eps=1e-05, elementwise_affine=True)
  (norm_text): LayerNorm((128,), eps=1e-05, elementwise_affine=True)
  (fc_video): Sequential(
    (0): Linear(in_features=128, out_features=128, bias=True)
    (1): ReLU(inplace=True)
    (2): Dropout(p=0.5, inplace=False)
    (3): Linear(in_features=128, out_features=1, bias=True)
  )
  (fc_text): Sequential(
    (0): Linear(in_features=128, out_features=128, bias=True)
    (1): ReLU(inplace=True)
    (2): Dropout(p=0.5, inplace=False)
    (3): Linear(in_features=128, out_features=1, bias=True)
  )
)
[2024-03-26 08:28:03,981] {'dataset': 'BLiSS', 'data_root': 'data', 'device': 'cuda', 'seed': 12345, 'max_epoch': 50, 'start_epoch': 0, 'batch_size': 64, 'num_workers': 4, 'model_dir': 'logs/BLiSS', 'log_file': 'log.txt', 'lr': 0.001, 'weight_decay': 1e-07, 'nms_thresh': 0.4, 'print_freq': 5, 'eval_freq': 1, 'suffix': '', 'checkpoint': None, 'test': False, 'num_input_video': 512, 'num_input_text': 768, 'num_feature': 512, 'num_hidden': 128, 'dropout_video': 0.1, 'dropout_text': 0.1, 'dropout_attn': 0.1, 'dropout_fc': 0.5, 'num_layers': 6, 'lambda_contrastive_inter': 0.01, 'lambda_contrastive_intra': 0.001, 'ratio': 4}
[2024-03-26 08:28:14,481] Using default tokenizer.
[2024-03-26 08:53:24,164] 
Model_BLiSS(
  (proj_fc_video): Sequential(
    (0): Linear(in_features=512, out_features=128, bias=True)
    (1): Dropout(p=0.1, inplace=False)
  )
  (proj_fc_text): Sequential(
    (0): Linear(in_features=768, out_features=128, bias=True)
    (1): Dropout(p=0.1, inplace=False)
  )
  (multiway_list): ModuleList(
    (0): MultiWayTransformer(
      (norm1_fused): LayerNorm((128,), eps=1e-05, elementwise_affine=True)
      (attn_fusion): MultiHeadAttention(q_dims=128, k_dims=128, v_dims=128, h_dims=128, o_dims=128, heads=8, p=0.1, bias=True)
      (norm2_video): LayerNorm((128,), eps=1e-05, elementwise_affine=True)
      (ffn_video): FFN(
        (fc1): Linear(in_features=128, out_features=512, bias=True)
        (act): GELU(approximate=none)
        (drop1): Dropout(p=0.1, inplace=False)
        (fc2): Linear(in_features=512, out_features=128, bias=True)
        (drop2): Dropout(p=0.1, inplace=False)
      )
      (norm2_text): LayerNorm((128,), eps=1e-05, elementwise_affine=True)
      (ffn_text): FFN(
        (fc1): Linear(in_features=128, out_features=512, bias=True)
        (act): GELU(approximate=none)
        (drop1): Dropout(p=0.1, inplace=False)
        (fc2): Linear(in_features=512, out_features=128, bias=True)
        (drop2): Dropout(p=0.1, inplace=False)
      )
    )
    (1): MultiWayTransformer(
      (norm1_fused): LayerNorm((128,), eps=1e-05, elementwise_affine=True)
      (attn_fusion): MultiHeadAttention(q_dims=128, k_dims=128, v_dims=128, h_dims=128, o_dims=128, heads=8, p=0.1, bias=True)
      (norm2_video): LayerNorm((128,), eps=1e-05, elementwise_affine=True)
      (ffn_video): FFN(
        (fc1): Linear(in_features=128, out_features=512, bias=True)
        (act): GELU(approximate=none)
        (drop1): Dropout(p=0.1, inplace=False)
        (fc2): Linear(in_features=512, out_features=128, bias=True)
        (drop2): Dropout(p=0.1, inplace=False)
      )
      (norm2_text): LayerNorm((128,), eps=1e-05, elementwise_affine=True)
      (ffn_text): FFN(
        (fc1): Linear(in_features=128, out_features=512, bias=True)
        (act): GELU(approximate=none)
        (drop1): Dropout(p=0.1, inplace=False)
        (fc2): Linear(in_features=512, out_features=128, bias=True)
        (drop2): Dropout(p=0.1, inplace=False)
      )
    )
    (2): MultiWayTransformer(
      (norm1_fused): LayerNorm((128,), eps=1e-05, elementwise_affine=True)
      (attn_fusion): MultiHeadAttention(q_dims=128, k_dims=128, v_dims=128, h_dims=128, o_dims=128, heads=8, p=0.1, bias=True)
      (norm2_video): LayerNorm((128,), eps=1e-05, elementwise_affine=True)
      (ffn_video): FFN(
        (fc1): Linear(in_features=128, out_features=512, bias=True)
        (act): GELU(approximate=none)
        (drop1): Dropout(p=0.1, inplace=False)
        (fc2): Linear(in_features=512, out_features=128, bias=True)
        (drop2): Dropout(p=0.1, inplace=False)
      )
      (norm2_text): LayerNorm((128,), eps=1e-05, elementwise_affine=True)
      (ffn_text): FFN(
        (fc1): Linear(in_features=128, out_features=512, bias=True)
        (act): GELU(approximate=none)
        (drop1): Dropout(p=0.1, inplace=False)
        (fc2): Linear(in_features=512, out_features=128, bias=True)
        (drop2): Dropout(p=0.1, inplace=False)
      )
    )
    (3): MultiWayTransformer(
      (norm1_fused): LayerNorm((128,), eps=1e-05, elementwise_affine=True)
      (attn_fusion): MultiHeadAttention(q_dims=128, k_dims=128, v_dims=128, h_dims=128, o_dims=128, heads=8, p=0.1, bias=True)
      (norm2_video): LayerNorm((128,), eps=1e-05, elementwise_affine=True)
      (ffn_video): FFN(
        (fc1): Linear(in_features=128, out_features=512, bias=True)
        (act): GELU(approximate=none)
        (drop1): Dropout(p=0.1, inplace=False)
        (fc2): Linear(in_features=512, out_features=128, bias=True)
        (drop2): Dropout(p=0.1, inplace=False)
      )
      (norm2_text): LayerNorm((128,), eps=1e-05, elementwise_affine=True)
      (ffn_text): FFN(
        (fc1): Linear(in_features=128, out_features=512, bias=True)
        (act): GELU(approximate=none)
        (drop1): Dropout(p=0.1, inplace=False)
        (fc2): Linear(in_features=512, out_features=128, bias=True)
        (drop2): Dropout(p=0.1, inplace=False)
      )
    )
    (4): MultiWayTransformer(
      (norm1_fused): LayerNorm((128,), eps=1e-05, elementwise_affine=True)
      (attn_fusion): MultiHeadAttention(q_dims=128, k_dims=128, v_dims=128, h_dims=128, o_dims=128, heads=8, p=0.1, bias=True)
      (norm2_video): LayerNorm((128,), eps=1e-05, elementwise_affine=True)
      (ffn_video): FFN(
        (fc1): Linear(in_features=128, out_features=512, bias=True)
        (act): GELU(approximate=none)
        (drop1): Dropout(p=0.1, inplace=False)
        (fc2): Linear(in_features=512, out_features=128, bias=True)
        (drop2): Dropout(p=0.1, inplace=False)
      )
      (norm2_text): LayerNorm((128,), eps=1e-05, elementwise_affine=True)
      (ffn_text): FFN(
        (fc1): Linear(in_features=128, out_features=512, bias=True)
        (act): GELU(approximate=none)
        (drop1): Dropout(p=0.1, inplace=False)
        (fc2): Linear(in_features=512, out_features=128, bias=True)
        (drop2): Dropout(p=0.1, inplace=False)
      )
    )
    (5): MultiWayTransformer(
      (norm1_fused): LayerNorm((128,), eps=1e-05, elementwise_affine=True)
      (attn_fusion): MultiHeadAttention(q_dims=128, k_dims=128, v_dims=128, h_dims=128, o_dims=128, heads=8, p=0.1, bias=True)
      (norm2_video): LayerNorm((128,), eps=1e-05, elementwise_affine=True)
      (ffn_video): FFN(
        (fc1): Linear(in_features=128, out_features=512, bias=True)
        (act): GELU(approximate=none)
        (drop1): Dropout(p=0.1, inplace=False)
        (fc2): Linear(in_features=512, out_features=128, bias=True)
        (drop2): Dropout(p=0.1, inplace=False)
      )
      (norm2_text): LayerNorm((128,), eps=1e-05, elementwise_affine=True)
      (ffn_text): FFN(
        (fc1): Linear(in_features=128, out_features=512, bias=True)
        (act): GELU(approximate=none)
        (drop1): Dropout(p=0.1, inplace=False)
        (fc2): Linear(in_features=512, out_features=128, bias=True)
        (drop2): Dropout(p=0.1, inplace=False)
      )
    )
  )
  (norm_video): LayerNorm((128,), eps=1e-05, elementwise_affine=True)
  (norm_text): LayerNorm((128,), eps=1e-05, elementwise_affine=True)
  (fc_video): Sequential(
    (0): Linear(in_features=128, out_features=128, bias=True)
    (1): ReLU(inplace=True)
    (2): Dropout(p=0.5, inplace=False)
    (3): Linear(in_features=128, out_features=1, bias=True)
  )
  (fc_text): Sequential(
    (0): Linear(in_features=128, out_features=128, bias=True)
    (1): ReLU(inplace=True)
    (2): Dropout(p=0.5, inplace=False)
    (3): Linear(in_features=128, out_features=1, bias=True)
  )
)
[2024-03-26 09:11:52,297] {'dataset': 'BLiSS', 'data_root': 'data', 'device': 'cuda', 'seed': 12345, 'max_epoch': 50, 'start_epoch': 0, 'batch_size': 64, 'num_workers': 4, 'model_dir': 'logs/BLiSS', 'log_file': 'log.txt', 'lr': 0.001, 'weight_decay': 1e-07, 'nms_thresh': 0.4, 'print_freq': 5, 'eval_freq': 1, 'suffix': '', 'checkpoint': None, 'test': False, 'num_input_video': 512, 'num_input_text': 768, 'num_feature': 512, 'num_hidden': 128, 'dropout_video': 0.1, 'dropout_text': 0.1, 'dropout_attn': 0.1, 'dropout_fc': 0.5, 'num_layers': 6, 'lambda_contrastive_inter': 0.01, 'lambda_contrastive_intra': 0.001, 'ratio': 4}
[2024-03-26 09:12:09,852] Using default tokenizer.
[2024-03-26 09:39:03,861] 
Model_BLiSS(
  (proj_fc_video): Sequential(
    (0): Linear(in_features=512, out_features=128, bias=True)
    (1): Dropout(p=0.1, inplace=False)
  )
  (proj_fc_text): Sequential(
    (0): Linear(in_features=768, out_features=128, bias=True)
    (1): Dropout(p=0.1, inplace=False)
  )
  (multiway_list): ModuleList(
    (0): MultiWayTransformer(
      (norm1_fused): LayerNorm((128,), eps=1e-05, elementwise_affine=True)
      (attn_fusion): MultiHeadAttention(q_dims=128, k_dims=128, v_dims=128, h_dims=128, o_dims=128, heads=8, p=0.1, bias=True)
      (norm2_video): LayerNorm((128,), eps=1e-05, elementwise_affine=True)
      (ffn_video): FFN(
        (fc1): Linear(in_features=128, out_features=512, bias=True)
        (act): GELU(approximate=none)
        (drop1): Dropout(p=0.1, inplace=False)
        (fc2): Linear(in_features=512, out_features=128, bias=True)
        (drop2): Dropout(p=0.1, inplace=False)
      )
      (norm2_text): LayerNorm((128,), eps=1e-05, elementwise_affine=True)
      (ffn_text): FFN(
        (fc1): Linear(in_features=128, out_features=512, bias=True)
        (act): GELU(approximate=none)
        (drop1): Dropout(p=0.1, inplace=False)
        (fc2): Linear(in_features=512, out_features=128, bias=True)
        (drop2): Dropout(p=0.1, inplace=False)
      )
    )
    (1): MultiWayTransformer(
      (norm1_fused): LayerNorm((128,), eps=1e-05, elementwise_affine=True)
      (attn_fusion): MultiHeadAttention(q_dims=128, k_dims=128, v_dims=128, h_dims=128, o_dims=128, heads=8, p=0.1, bias=True)
      (norm2_video): LayerNorm((128,), eps=1e-05, elementwise_affine=True)
      (ffn_video): FFN(
        (fc1): Linear(in_features=128, out_features=512, bias=True)
        (act): GELU(approximate=none)
        (drop1): Dropout(p=0.1, inplace=False)
        (fc2): Linear(in_features=512, out_features=128, bias=True)
        (drop2): Dropout(p=0.1, inplace=False)
      )
      (norm2_text): LayerNorm((128,), eps=1e-05, elementwise_affine=True)
      (ffn_text): FFN(
        (fc1): Linear(in_features=128, out_features=512, bias=True)
        (act): GELU(approximate=none)
        (drop1): Dropout(p=0.1, inplace=False)
        (fc2): Linear(in_features=512, out_features=128, bias=True)
        (drop2): Dropout(p=0.1, inplace=False)
      )
    )
    (2): MultiWayTransformer(
      (norm1_fused): LayerNorm((128,), eps=1e-05, elementwise_affine=True)
      (attn_fusion): MultiHeadAttention(q_dims=128, k_dims=128, v_dims=128, h_dims=128, o_dims=128, heads=8, p=0.1, bias=True)
      (norm2_video): LayerNorm((128,), eps=1e-05, elementwise_affine=True)
      (ffn_video): FFN(
        (fc1): Linear(in_features=128, out_features=512, bias=True)
        (act): GELU(approximate=none)
        (drop1): Dropout(p=0.1, inplace=False)
        (fc2): Linear(in_features=512, out_features=128, bias=True)
        (drop2): Dropout(p=0.1, inplace=False)
      )
      (norm2_text): LayerNorm((128,), eps=1e-05, elementwise_affine=True)
      (ffn_text): FFN(
        (fc1): Linear(in_features=128, out_features=512, bias=True)
        (act): GELU(approximate=none)
        (drop1): Dropout(p=0.1, inplace=False)
        (fc2): Linear(in_features=512, out_features=128, bias=True)
        (drop2): Dropout(p=0.1, inplace=False)
      )
    )
    (3): MultiWayTransformer(
      (norm1_fused): LayerNorm((128,), eps=1e-05, elementwise_affine=True)
      (attn_fusion): MultiHeadAttention(q_dims=128, k_dims=128, v_dims=128, h_dims=128, o_dims=128, heads=8, p=0.1, bias=True)
      (norm2_video): LayerNorm((128,), eps=1e-05, elementwise_affine=True)
      (ffn_video): FFN(
        (fc1): Linear(in_features=128, out_features=512, bias=True)
        (act): GELU(approximate=none)
        (drop1): Dropout(p=0.1, inplace=False)
        (fc2): Linear(in_features=512, out_features=128, bias=True)
        (drop2): Dropout(p=0.1, inplace=False)
      )
      (norm2_text): LayerNorm((128,), eps=1e-05, elementwise_affine=True)
      (ffn_text): FFN(
        (fc1): Linear(in_features=128, out_features=512, bias=True)
        (act): GELU(approximate=none)
        (drop1): Dropout(p=0.1, inplace=False)
        (fc2): Linear(in_features=512, out_features=128, bias=True)
        (drop2): Dropout(p=0.1, inplace=False)
      )
    )
    (4): MultiWayTransformer(
      (norm1_fused): LayerNorm((128,), eps=1e-05, elementwise_affine=True)
      (attn_fusion): MultiHeadAttention(q_dims=128, k_dims=128, v_dims=128, h_dims=128, o_dims=128, heads=8, p=0.1, bias=True)
      (norm2_video): LayerNorm((128,), eps=1e-05, elementwise_affine=True)
      (ffn_video): FFN(
        (fc1): Linear(in_features=128, out_features=512, bias=True)
        (act): GELU(approximate=none)
        (drop1): Dropout(p=0.1, inplace=False)
        (fc2): Linear(in_features=512, out_features=128, bias=True)
        (drop2): Dropout(p=0.1, inplace=False)
      )
      (norm2_text): LayerNorm((128,), eps=1e-05, elementwise_affine=True)
      (ffn_text): FFN(
        (fc1): Linear(in_features=128, out_features=512, bias=True)
        (act): GELU(approximate=none)
        (drop1): Dropout(p=0.1, inplace=False)
        (fc2): Linear(in_features=512, out_features=128, bias=True)
        (drop2): Dropout(p=0.1, inplace=False)
      )
    )
    (5): MultiWayTransformer(
      (norm1_fused): LayerNorm((128,), eps=1e-05, elementwise_affine=True)
      (attn_fusion): MultiHeadAttention(q_dims=128, k_dims=128, v_dims=128, h_dims=128, o_dims=128, heads=8, p=0.1, bias=True)
      (norm2_video): LayerNorm((128,), eps=1e-05, elementwise_affine=True)
      (ffn_video): FFN(
        (fc1): Linear(in_features=128, out_features=512, bias=True)
        (act): GELU(approximate=none)
        (drop1): Dropout(p=0.1, inplace=False)
        (fc2): Linear(in_features=512, out_features=128, bias=True)
        (drop2): Dropout(p=0.1, inplace=False)
      )
      (norm2_text): LayerNorm((128,), eps=1e-05, elementwise_affine=True)
      (ffn_text): FFN(
        (fc1): Linear(in_features=128, out_features=512, bias=True)
        (act): GELU(approximate=none)
        (drop1): Dropout(p=0.1, inplace=False)
        (fc2): Linear(in_features=512, out_features=128, bias=True)
        (drop2): Dropout(p=0.1, inplace=False)
      )
    )
  )
  (norm_video): LayerNorm((128,), eps=1e-05, elementwise_affine=True)
  (norm_text): LayerNorm((128,), eps=1e-05, elementwise_affine=True)
  (fc_video): Sequential(
    (0): Linear(in_features=128, out_features=128, bias=True)
    (1): ReLU(inplace=True)
    (2): Dropout(p=0.5, inplace=False)
    (3): Linear(in_features=128, out_features=1, bias=True)
  )
  (fc_text): Sequential(
    (0): Linear(in_features=128, out_features=128, bias=True)
    (1): ReLU(inplace=True)
    (2): Dropout(p=0.5, inplace=False)
    (3): Linear(in_features=128, out_features=1, bias=True)
  )
)
[2024-03-28 08:09:57,336] {'dataset': 'BLiSS', 'data_root': 'data', 'device': 'cuda', 'seed': 12345, 'max_epoch': 50, 'start_epoch': 0, 'batch_size': 64, 'num_workers': 4, 'model_dir': 'logs/BLiSS', 'log_file': 'log.txt', 'lr': 0.001, 'weight_decay': 1e-07, 'nms_thresh': 0.4, 'print_freq': 5, 'eval_freq': 1, 'suffix': '', 'checkpoint': None, 'test': False, 'num_input_video': 512, 'num_input_text': 768, 'num_feature': 512, 'num_hidden': 128, 'dropout_video': 0.1, 'dropout_text': 0.1, 'dropout_attn': 0.1, 'dropout_fc': 0.5, 'num_layers': 6, 'lambda_contrastive_inter': 0.01, 'lambda_contrastive_intra': 0.001, 'ratio': 4}
[2024-03-28 08:10:10,243] Using default tokenizer.
[2024-03-28 08:23:02,103] 
Model_BLiSS(
  (proj_fc_video): Sequential(
    (0): Linear(in_features=512, out_features=128, bias=True)
    (1): Dropout(p=0.1, inplace=False)
  )
  (proj_fc_text): Sequential(
    (0): Linear(in_features=768, out_features=128, bias=True)
    (1): Dropout(p=0.1, inplace=False)
  )
  (multiway_list): ModuleList(
    (0): MultiWayTransformer(
      (norm1_fused): LayerNorm((128,), eps=1e-05, elementwise_affine=True)
      (attn_fusion): MultiHeadAttention(q_dims=128, k_dims=128, v_dims=128, h_dims=128, o_dims=128, heads=8, p=0.1, bias=True)
      (norm2_video): LayerNorm((128,), eps=1e-05, elementwise_affine=True)
      (ffn_video): FFN(
        (fc1): Linear(in_features=128, out_features=512, bias=True)
        (act): GELU(approximate=none)
        (drop1): Dropout(p=0.1, inplace=False)
        (fc2): Linear(in_features=512, out_features=128, bias=True)
        (drop2): Dropout(p=0.1, inplace=False)
      )
      (norm2_text): LayerNorm((128,), eps=1e-05, elementwise_affine=True)
      (ffn_text): FFN(
        (fc1): Linear(in_features=128, out_features=512, bias=True)
        (act): GELU(approximate=none)
        (drop1): Dropout(p=0.1, inplace=False)
        (fc2): Linear(in_features=512, out_features=128, bias=True)
        (drop2): Dropout(p=0.1, inplace=False)
      )
    )
    (1): MultiWayTransformer(
      (norm1_fused): LayerNorm((128,), eps=1e-05, elementwise_affine=True)
      (attn_fusion): MultiHeadAttention(q_dims=128, k_dims=128, v_dims=128, h_dims=128, o_dims=128, heads=8, p=0.1, bias=True)
      (norm2_video): LayerNorm((128,), eps=1e-05, elementwise_affine=True)
      (ffn_video): FFN(
        (fc1): Linear(in_features=128, out_features=512, bias=True)
        (act): GELU(approximate=none)
        (drop1): Dropout(p=0.1, inplace=False)
        (fc2): Linear(in_features=512, out_features=128, bias=True)
        (drop2): Dropout(p=0.1, inplace=False)
      )
      (norm2_text): LayerNorm((128,), eps=1e-05, elementwise_affine=True)
      (ffn_text): FFN(
        (fc1): Linear(in_features=128, out_features=512, bias=True)
        (act): GELU(approximate=none)
        (drop1): Dropout(p=0.1, inplace=False)
        (fc2): Linear(in_features=512, out_features=128, bias=True)
        (drop2): Dropout(p=0.1, inplace=False)
      )
    )
    (2): MultiWayTransformer(
      (norm1_fused): LayerNorm((128,), eps=1e-05, elementwise_affine=True)
      (attn_fusion): MultiHeadAttention(q_dims=128, k_dims=128, v_dims=128, h_dims=128, o_dims=128, heads=8, p=0.1, bias=True)
      (norm2_video): LayerNorm((128,), eps=1e-05, elementwise_affine=True)
      (ffn_video): FFN(
        (fc1): Linear(in_features=128, out_features=512, bias=True)
        (act): GELU(approximate=none)
        (drop1): Dropout(p=0.1, inplace=False)
        (fc2): Linear(in_features=512, out_features=128, bias=True)
        (drop2): Dropout(p=0.1, inplace=False)
      )
      (norm2_text): LayerNorm((128,), eps=1e-05, elementwise_affine=True)
      (ffn_text): FFN(
        (fc1): Linear(in_features=128, out_features=512, bias=True)
        (act): GELU(approximate=none)
        (drop1): Dropout(p=0.1, inplace=False)
        (fc2): Linear(in_features=512, out_features=128, bias=True)
        (drop2): Dropout(p=0.1, inplace=False)
      )
    )
    (3): MultiWayTransformer(
      (norm1_fused): LayerNorm((128,), eps=1e-05, elementwise_affine=True)
      (attn_fusion): MultiHeadAttention(q_dims=128, k_dims=128, v_dims=128, h_dims=128, o_dims=128, heads=8, p=0.1, bias=True)
      (norm2_video): LayerNorm((128,), eps=1e-05, elementwise_affine=True)
      (ffn_video): FFN(
        (fc1): Linear(in_features=128, out_features=512, bias=True)
        (act): GELU(approximate=none)
        (drop1): Dropout(p=0.1, inplace=False)
        (fc2): Linear(in_features=512, out_features=128, bias=True)
        (drop2): Dropout(p=0.1, inplace=False)
      )
      (norm2_text): LayerNorm((128,), eps=1e-05, elementwise_affine=True)
      (ffn_text): FFN(
        (fc1): Linear(in_features=128, out_features=512, bias=True)
        (act): GELU(approximate=none)
        (drop1): Dropout(p=0.1, inplace=False)
        (fc2): Linear(in_features=512, out_features=128, bias=True)
        (drop2): Dropout(p=0.1, inplace=False)
      )
    )
    (4): MultiWayTransformer(
      (norm1_fused): LayerNorm((128,), eps=1e-05, elementwise_affine=True)
      (attn_fusion): MultiHeadAttention(q_dims=128, k_dims=128, v_dims=128, h_dims=128, o_dims=128, heads=8, p=0.1, bias=True)
      (norm2_video): LayerNorm((128,), eps=1e-05, elementwise_affine=True)
      (ffn_video): FFN(
        (fc1): Linear(in_features=128, out_features=512, bias=True)
        (act): GELU(approximate=none)
        (drop1): Dropout(p=0.1, inplace=False)
        (fc2): Linear(in_features=512, out_features=128, bias=True)
        (drop2): Dropout(p=0.1, inplace=False)
      )
      (norm2_text): LayerNorm((128,), eps=1e-05, elementwise_affine=True)
      (ffn_text): FFN(
        (fc1): Linear(in_features=128, out_features=512, bias=True)
        (act): GELU(approximate=none)
        (drop1): Dropout(p=0.1, inplace=False)
        (fc2): Linear(in_features=512, out_features=128, bias=True)
        (drop2): Dropout(p=0.1, inplace=False)
      )
    )
    (5): MultiWayTransformer(
      (norm1_fused): LayerNorm((128,), eps=1e-05, elementwise_affine=True)
      (attn_fusion): MultiHeadAttention(q_dims=128, k_dims=128, v_dims=128, h_dims=128, o_dims=128, heads=8, p=0.1, bias=True)
      (norm2_video): LayerNorm((128,), eps=1e-05, elementwise_affine=True)
      (ffn_video): FFN(
        (fc1): Linear(in_features=128, out_features=512, bias=True)
        (act): GELU(approximate=none)
        (drop1): Dropout(p=0.1, inplace=False)
        (fc2): Linear(in_features=512, out_features=128, bias=True)
        (drop2): Dropout(p=0.1, inplace=False)
      )
      (norm2_text): LayerNorm((128,), eps=1e-05, elementwise_affine=True)
      (ffn_text): FFN(
        (fc1): Linear(in_features=128, out_features=512, bias=True)
        (act): GELU(approximate=none)
        (drop1): Dropout(p=0.1, inplace=False)
        (fc2): Linear(in_features=512, out_features=128, bias=True)
        (drop2): Dropout(p=0.1, inplace=False)
      )
    )
  )
  (norm_video): LayerNorm((128,), eps=1e-05, elementwise_affine=True)
  (norm_text): LayerNorm((128,), eps=1e-05, elementwise_affine=True)
  (fc_video): Sequential(
    (0): Linear(in_features=128, out_features=128, bias=True)
    (1): ReLU(inplace=True)
    (2): Dropout(p=0.5, inplace=False)
    (3): Linear(in_features=128, out_features=1, bias=True)
  )
  (fc_text): Sequential(
    (0): Linear(in_features=128, out_features=128, bias=True)
    (1): ReLU(inplace=True)
    (2): Dropout(p=0.5, inplace=False)
    (3): Linear(in_features=128, out_features=1, bias=True)
  )
)
[2024-03-29 10:30:57,420] {'dataset': 'BLiSS', 'data_root': 'data', 'device': 'cuda', 'seed': 12345, 'max_epoch': 50, 'start_epoch': 0, 'batch_size': 64, 'num_workers': 4, 'model_dir': 'logs/BLiSS', 'log_file': 'log.txt', 'lr': 0.001, 'weight_decay': 1e-07, 'nms_thresh': 0.4, 'print_freq': 5, 'eval_freq': 1, 'suffix': '', 'checkpoint': None, 'test': False, 'num_input_video': 512, 'num_input_text': 768, 'num_feature': 512, 'num_hidden': 128, 'dropout_video': 0.1, 'dropout_text': 0.1, 'dropout_attn': 0.1, 'dropout_fc': 0.5, 'num_layers': 6, 'lambda_contrastive_inter': 0.01, 'lambda_contrastive_intra': 0.001, 'ratio': 4}
[2024-03-29 10:31:14,615] Using default tokenizer.
[2024-03-29 10:54:58,076] 
Model_BLiSS(
  (proj_fc_video): Sequential(
    (0): Linear(in_features=512, out_features=128, bias=True)
    (1): Dropout(p=0.1, inplace=False)
  )
  (proj_fc_text): Sequential(
    (0): Linear(in_features=768, out_features=128, bias=True)
    (1): Dropout(p=0.1, inplace=False)
  )
  (multiway_list): ModuleList(
    (0): MultiWayTransformer(
      (norm1_fused): LayerNorm((128,), eps=1e-05, elementwise_affine=True)
      (attn_fusion): MultiHeadAttention(q_dims=128, k_dims=128, v_dims=128, h_dims=128, o_dims=128, heads=8, p=0.1, bias=True)
      (norm2_video): LayerNorm((128,), eps=1e-05, elementwise_affine=True)
      (ffn_video): FFN(
        (fc1): Linear(in_features=128, out_features=512, bias=True)
        (act): GELU(approximate=none)
        (drop1): Dropout(p=0.1, inplace=False)
        (fc2): Linear(in_features=512, out_features=128, bias=True)
        (drop2): Dropout(p=0.1, inplace=False)
      )
      (norm2_text): LayerNorm((128,), eps=1e-05, elementwise_affine=True)
      (ffn_text): FFN(
        (fc1): Linear(in_features=128, out_features=512, bias=True)
        (act): GELU(approximate=none)
        (drop1): Dropout(p=0.1, inplace=False)
        (fc2): Linear(in_features=512, out_features=128, bias=True)
        (drop2): Dropout(p=0.1, inplace=False)
      )
    )
    (1): MultiWayTransformer(
      (norm1_fused): LayerNorm((128,), eps=1e-05, elementwise_affine=True)
      (attn_fusion): MultiHeadAttention(q_dims=128, k_dims=128, v_dims=128, h_dims=128, o_dims=128, heads=8, p=0.1, bias=True)
      (norm2_video): LayerNorm((128,), eps=1e-05, elementwise_affine=True)
      (ffn_video): FFN(
        (fc1): Linear(in_features=128, out_features=512, bias=True)
        (act): GELU(approximate=none)
        (drop1): Dropout(p=0.1, inplace=False)
        (fc2): Linear(in_features=512, out_features=128, bias=True)
        (drop2): Dropout(p=0.1, inplace=False)
      )
      (norm2_text): LayerNorm((128,), eps=1e-05, elementwise_affine=True)
      (ffn_text): FFN(
        (fc1): Linear(in_features=128, out_features=512, bias=True)
        (act): GELU(approximate=none)
        (drop1): Dropout(p=0.1, inplace=False)
        (fc2): Linear(in_features=512, out_features=128, bias=True)
        (drop2): Dropout(p=0.1, inplace=False)
      )
    )
    (2): MultiWayTransformer(
      (norm1_fused): LayerNorm((128,), eps=1e-05, elementwise_affine=True)
      (attn_fusion): MultiHeadAttention(q_dims=128, k_dims=128, v_dims=128, h_dims=128, o_dims=128, heads=8, p=0.1, bias=True)
      (norm2_video): LayerNorm((128,), eps=1e-05, elementwise_affine=True)
      (ffn_video): FFN(
        (fc1): Linear(in_features=128, out_features=512, bias=True)
        (act): GELU(approximate=none)
        (drop1): Dropout(p=0.1, inplace=False)
        (fc2): Linear(in_features=512, out_features=128, bias=True)
        (drop2): Dropout(p=0.1, inplace=False)
      )
      (norm2_text): LayerNorm((128,), eps=1e-05, elementwise_affine=True)
      (ffn_text): FFN(
        (fc1): Linear(in_features=128, out_features=512, bias=True)
        (act): GELU(approximate=none)
        (drop1): Dropout(p=0.1, inplace=False)
        (fc2): Linear(in_features=512, out_features=128, bias=True)
        (drop2): Dropout(p=0.1, inplace=False)
      )
    )
    (3): MultiWayTransformer(
      (norm1_fused): LayerNorm((128,), eps=1e-05, elementwise_affine=True)
      (attn_fusion): MultiHeadAttention(q_dims=128, k_dims=128, v_dims=128, h_dims=128, o_dims=128, heads=8, p=0.1, bias=True)
      (norm2_video): LayerNorm((128,), eps=1e-05, elementwise_affine=True)
      (ffn_video): FFN(
        (fc1): Linear(in_features=128, out_features=512, bias=True)
        (act): GELU(approximate=none)
        (drop1): Dropout(p=0.1, inplace=False)
        (fc2): Linear(in_features=512, out_features=128, bias=True)
        (drop2): Dropout(p=0.1, inplace=False)
      )
      (norm2_text): LayerNorm((128,), eps=1e-05, elementwise_affine=True)
      (ffn_text): FFN(
        (fc1): Linear(in_features=128, out_features=512, bias=True)
        (act): GELU(approximate=none)
        (drop1): Dropout(p=0.1, inplace=False)
        (fc2): Linear(in_features=512, out_features=128, bias=True)
        (drop2): Dropout(p=0.1, inplace=False)
      )
    )
    (4): MultiWayTransformer(
      (norm1_fused): LayerNorm((128,), eps=1e-05, elementwise_affine=True)
      (attn_fusion): MultiHeadAttention(q_dims=128, k_dims=128, v_dims=128, h_dims=128, o_dims=128, heads=8, p=0.1, bias=True)
      (norm2_video): LayerNorm((128,), eps=1e-05, elementwise_affine=True)
      (ffn_video): FFN(
        (fc1): Linear(in_features=128, out_features=512, bias=True)
        (act): GELU(approximate=none)
        (drop1): Dropout(p=0.1, inplace=False)
        (fc2): Linear(in_features=512, out_features=128, bias=True)
        (drop2): Dropout(p=0.1, inplace=False)
      )
      (norm2_text): LayerNorm((128,), eps=1e-05, elementwise_affine=True)
      (ffn_text): FFN(
        (fc1): Linear(in_features=128, out_features=512, bias=True)
        (act): GELU(approximate=none)
        (drop1): Dropout(p=0.1, inplace=False)
        (fc2): Linear(in_features=512, out_features=128, bias=True)
        (drop2): Dropout(p=0.1, inplace=False)
      )
    )
    (5): MultiWayTransformer(
      (norm1_fused): LayerNorm((128,), eps=1e-05, elementwise_affine=True)
      (attn_fusion): MultiHeadAttention(q_dims=128, k_dims=128, v_dims=128, h_dims=128, o_dims=128, heads=8, p=0.1, bias=True)
      (norm2_video): LayerNorm((128,), eps=1e-05, elementwise_affine=True)
      (ffn_video): FFN(
        (fc1): Linear(in_features=128, out_features=512, bias=True)
        (act): GELU(approximate=none)
        (drop1): Dropout(p=0.1, inplace=False)
        (fc2): Linear(in_features=512, out_features=128, bias=True)
        (drop2): Dropout(p=0.1, inplace=False)
      )
      (norm2_text): LayerNorm((128,), eps=1e-05, elementwise_affine=True)
      (ffn_text): FFN(
        (fc1): Linear(in_features=128, out_features=512, bias=True)
        (act): GELU(approximate=none)
        (drop1): Dropout(p=0.1, inplace=False)
        (fc2): Linear(in_features=512, out_features=128, bias=True)
        (drop2): Dropout(p=0.1, inplace=False)
      )
    )
  )
  (norm_video): LayerNorm((128,), eps=1e-05, elementwise_affine=True)
  (norm_text): LayerNorm((128,), eps=1e-05, elementwise_affine=True)
  (fc_video): Sequential(
    (0): Linear(in_features=128, out_features=128, bias=True)
    (1): ReLU(inplace=True)
    (2): Dropout(p=0.5, inplace=False)
    (3): Linear(in_features=128, out_features=1, bias=True)
  )
  (fc_text): Sequential(
    (0): Linear(in_features=128, out_features=128, bias=True)
    (1): ReLU(inplace=True)
    (2): Dropout(p=0.5, inplace=False)
    (3): Linear(in_features=128, out_features=1, bias=True)
  )
)
[2024-03-29 11:18:09,461] {'dataset': 'BLiSS', 'data_root': 'data', 'device': 'cuda', 'seed': 12345, 'max_epoch': 50, 'start_epoch': 0, 'batch_size': 64, 'num_workers': 1, 'model_dir': 'logs/BLiSS', 'log_file': 'log.txt', 'lr': 0.001, 'weight_decay': 1e-07, 'nms_thresh': 0.4, 'print_freq': 5, 'eval_freq': 1, 'suffix': '', 'checkpoint': None, 'test': False, 'num_input_video': 512, 'num_input_text': 768, 'num_feature': 512, 'num_hidden': 128, 'dropout_video': 0.1, 'dropout_text': 0.1, 'dropout_attn': 0.1, 'dropout_fc': 0.5, 'num_layers': 6, 'lambda_contrastive_inter': 0.01, 'lambda_contrastive_intra': 0.001, 'ratio': 4}
[2024-03-29 11:18:19,410] Using default tokenizer.
[2024-03-29 11:41:01,019] 
Model_BLiSS(
  (proj_fc_video): Sequential(
    (0): Linear(in_features=512, out_features=128, bias=True)
    (1): Dropout(p=0.1, inplace=False)
  )
  (proj_fc_text): Sequential(
    (0): Linear(in_features=768, out_features=128, bias=True)
    (1): Dropout(p=0.1, inplace=False)
  )
  (multiway_list): ModuleList(
    (0): MultiWayTransformer(
      (norm1_fused): LayerNorm((128,), eps=1e-05, elementwise_affine=True)
      (attn_fusion): MultiHeadAttention(q_dims=128, k_dims=128, v_dims=128, h_dims=128, o_dims=128, heads=8, p=0.1, bias=True)
      (norm2_video): LayerNorm((128,), eps=1e-05, elementwise_affine=True)
      (ffn_video): FFN(
        (fc1): Linear(in_features=128, out_features=512, bias=True)
        (act): GELU(approximate=none)
        (drop1): Dropout(p=0.1, inplace=False)
        (fc2): Linear(in_features=512, out_features=128, bias=True)
        (drop2): Dropout(p=0.1, inplace=False)
      )
      (norm2_text): LayerNorm((128,), eps=1e-05, elementwise_affine=True)
      (ffn_text): FFN(
        (fc1): Linear(in_features=128, out_features=512, bias=True)
        (act): GELU(approximate=none)
        (drop1): Dropout(p=0.1, inplace=False)
        (fc2): Linear(in_features=512, out_features=128, bias=True)
        (drop2): Dropout(p=0.1, inplace=False)
      )
    )
    (1): MultiWayTransformer(
      (norm1_fused): LayerNorm((128,), eps=1e-05, elementwise_affine=True)
      (attn_fusion): MultiHeadAttention(q_dims=128, k_dims=128, v_dims=128, h_dims=128, o_dims=128, heads=8, p=0.1, bias=True)
      (norm2_video): LayerNorm((128,), eps=1e-05, elementwise_affine=True)
      (ffn_video): FFN(
        (fc1): Linear(in_features=128, out_features=512, bias=True)
        (act): GELU(approximate=none)
        (drop1): Dropout(p=0.1, inplace=False)
        (fc2): Linear(in_features=512, out_features=128, bias=True)
        (drop2): Dropout(p=0.1, inplace=False)
      )
      (norm2_text): LayerNorm((128,), eps=1e-05, elementwise_affine=True)
      (ffn_text): FFN(
        (fc1): Linear(in_features=128, out_features=512, bias=True)
        (act): GELU(approximate=none)
        (drop1): Dropout(p=0.1, inplace=False)
        (fc2): Linear(in_features=512, out_features=128, bias=True)
        (drop2): Dropout(p=0.1, inplace=False)
      )
    )
    (2): MultiWayTransformer(
      (norm1_fused): LayerNorm((128,), eps=1e-05, elementwise_affine=True)
      (attn_fusion): MultiHeadAttention(q_dims=128, k_dims=128, v_dims=128, h_dims=128, o_dims=128, heads=8, p=0.1, bias=True)
      (norm2_video): LayerNorm((128,), eps=1e-05, elementwise_affine=True)
      (ffn_video): FFN(
        (fc1): Linear(in_features=128, out_features=512, bias=True)
        (act): GELU(approximate=none)
        (drop1): Dropout(p=0.1, inplace=False)
        (fc2): Linear(in_features=512, out_features=128, bias=True)
        (drop2): Dropout(p=0.1, inplace=False)
      )
      (norm2_text): LayerNorm((128,), eps=1e-05, elementwise_affine=True)
      (ffn_text): FFN(
        (fc1): Linear(in_features=128, out_features=512, bias=True)
        (act): GELU(approximate=none)
        (drop1): Dropout(p=0.1, inplace=False)
        (fc2): Linear(in_features=512, out_features=128, bias=True)
        (drop2): Dropout(p=0.1, inplace=False)
      )
    )
    (3): MultiWayTransformer(
      (norm1_fused): LayerNorm((128,), eps=1e-05, elementwise_affine=True)
      (attn_fusion): MultiHeadAttention(q_dims=128, k_dims=128, v_dims=128, h_dims=128, o_dims=128, heads=8, p=0.1, bias=True)
      (norm2_video): LayerNorm((128,), eps=1e-05, elementwise_affine=True)
      (ffn_video): FFN(
        (fc1): Linear(in_features=128, out_features=512, bias=True)
        (act): GELU(approximate=none)
        (drop1): Dropout(p=0.1, inplace=False)
        (fc2): Linear(in_features=512, out_features=128, bias=True)
        (drop2): Dropout(p=0.1, inplace=False)
      )
      (norm2_text): LayerNorm((128,), eps=1e-05, elementwise_affine=True)
      (ffn_text): FFN(
        (fc1): Linear(in_features=128, out_features=512, bias=True)
        (act): GELU(approximate=none)
        (drop1): Dropout(p=0.1, inplace=False)
        (fc2): Linear(in_features=512, out_features=128, bias=True)
        (drop2): Dropout(p=0.1, inplace=False)
      )
    )
    (4): MultiWayTransformer(
      (norm1_fused): LayerNorm((128,), eps=1e-05, elementwise_affine=True)
      (attn_fusion): MultiHeadAttention(q_dims=128, k_dims=128, v_dims=128, h_dims=128, o_dims=128, heads=8, p=0.1, bias=True)
      (norm2_video): LayerNorm((128,), eps=1e-05, elementwise_affine=True)
      (ffn_video): FFN(
        (fc1): Linear(in_features=128, out_features=512, bias=True)
        (act): GELU(approximate=none)
        (drop1): Dropout(p=0.1, inplace=False)
        (fc2): Linear(in_features=512, out_features=128, bias=True)
        (drop2): Dropout(p=0.1, inplace=False)
      )
      (norm2_text): LayerNorm((128,), eps=1e-05, elementwise_affine=True)
      (ffn_text): FFN(
        (fc1): Linear(in_features=128, out_features=512, bias=True)
        (act): GELU(approximate=none)
        (drop1): Dropout(p=0.1, inplace=False)
        (fc2): Linear(in_features=512, out_features=128, bias=True)
        (drop2): Dropout(p=0.1, inplace=False)
      )
    )
    (5): MultiWayTransformer(
      (norm1_fused): LayerNorm((128,), eps=1e-05, elementwise_affine=True)
      (attn_fusion): MultiHeadAttention(q_dims=128, k_dims=128, v_dims=128, h_dims=128, o_dims=128, heads=8, p=0.1, bias=True)
      (norm2_video): LayerNorm((128,), eps=1e-05, elementwise_affine=True)
      (ffn_video): FFN(
        (fc1): Linear(in_features=128, out_features=512, bias=True)
        (act): GELU(approximate=none)
        (drop1): Dropout(p=0.1, inplace=False)
        (fc2): Linear(in_features=512, out_features=128, bias=True)
        (drop2): Dropout(p=0.1, inplace=False)
      )
      (norm2_text): LayerNorm((128,), eps=1e-05, elementwise_affine=True)
      (ffn_text): FFN(
        (fc1): Linear(in_features=128, out_features=512, bias=True)
        (act): GELU(approximate=none)
        (drop1): Dropout(p=0.1, inplace=False)
        (fc2): Linear(in_features=512, out_features=128, bias=True)
        (drop2): Dropout(p=0.1, inplace=False)
      )
    )
  )
  (norm_video): LayerNorm((128,), eps=1e-05, elementwise_affine=True)
  (norm_text): LayerNorm((128,), eps=1e-05, elementwise_affine=True)
  (fc_video): Sequential(
    (0): Linear(in_features=128, out_features=128, bias=True)
    (1): ReLU(inplace=True)
    (2): Dropout(p=0.5, inplace=False)
    (3): Linear(in_features=128, out_features=1, bias=True)
  )
  (fc_text): Sequential(
    (0): Linear(in_features=128, out_features=128, bias=True)
    (1): ReLU(inplace=True)
    (2): Dropout(p=0.5, inplace=False)
    (3): Linear(in_features=128, out_features=1, bias=True)
  )
)
[2024-03-29 11:47:17,921] {'dataset': 'BLiSS', 'data_root': 'data', 'device': 'cuda', 'seed': 12345, 'max_epoch': 50, 'start_epoch': 0, 'batch_size': 64, 'num_workers': 0, 'model_dir': 'logs/BLiSS', 'log_file': 'log.txt', 'lr': 0.001, 'weight_decay': 1e-07, 'nms_thresh': 0.4, 'print_freq': 5, 'eval_freq': 1, 'suffix': '', 'checkpoint': None, 'test': False, 'num_input_video': 512, 'num_input_text': 768, 'num_feature': 512, 'num_hidden': 128, 'dropout_video': 0.1, 'dropout_text': 0.1, 'dropout_attn': 0.1, 'dropout_fc': 0.5, 'num_layers': 6, 'lambda_contrastive_inter': 0.01, 'lambda_contrastive_intra': 0.001, 'ratio': 4}
[2024-03-29 11:47:30,043] Using default tokenizer.
[2024-03-29 12:11:15,482] 
Model_BLiSS(
  (proj_fc_video): Sequential(
    (0): Linear(in_features=512, out_features=128, bias=True)
    (1): Dropout(p=0.1, inplace=False)
  )
  (proj_fc_text): Sequential(
    (0): Linear(in_features=768, out_features=128, bias=True)
    (1): Dropout(p=0.1, inplace=False)
  )
  (multiway_list): ModuleList(
    (0): MultiWayTransformer(
      (norm1_fused): LayerNorm((128,), eps=1e-05, elementwise_affine=True)
      (attn_fusion): MultiHeadAttention(q_dims=128, k_dims=128, v_dims=128, h_dims=128, o_dims=128, heads=8, p=0.1, bias=True)
      (norm2_video): LayerNorm((128,), eps=1e-05, elementwise_affine=True)
      (ffn_video): FFN(
        (fc1): Linear(in_features=128, out_features=512, bias=True)
        (act): GELU(approximate=none)
        (drop1): Dropout(p=0.1, inplace=False)
        (fc2): Linear(in_features=512, out_features=128, bias=True)
        (drop2): Dropout(p=0.1, inplace=False)
      )
      (norm2_text): LayerNorm((128,), eps=1e-05, elementwise_affine=True)
      (ffn_text): FFN(
        (fc1): Linear(in_features=128, out_features=512, bias=True)
        (act): GELU(approximate=none)
        (drop1): Dropout(p=0.1, inplace=False)
        (fc2): Linear(in_features=512, out_features=128, bias=True)
        (drop2): Dropout(p=0.1, inplace=False)
      )
    )
    (1): MultiWayTransformer(
      (norm1_fused): LayerNorm((128,), eps=1e-05, elementwise_affine=True)
      (attn_fusion): MultiHeadAttention(q_dims=128, k_dims=128, v_dims=128, h_dims=128, o_dims=128, heads=8, p=0.1, bias=True)
      (norm2_video): LayerNorm((128,), eps=1e-05, elementwise_affine=True)
      (ffn_video): FFN(
        (fc1): Linear(in_features=128, out_features=512, bias=True)
        (act): GELU(approximate=none)
        (drop1): Dropout(p=0.1, inplace=False)
        (fc2): Linear(in_features=512, out_features=128, bias=True)
        (drop2): Dropout(p=0.1, inplace=False)
      )
      (norm2_text): LayerNorm((128,), eps=1e-05, elementwise_affine=True)
      (ffn_text): FFN(
        (fc1): Linear(in_features=128, out_features=512, bias=True)
        (act): GELU(approximate=none)
        (drop1): Dropout(p=0.1, inplace=False)
        (fc2): Linear(in_features=512, out_features=128, bias=True)
        (drop2): Dropout(p=0.1, inplace=False)
      )
    )
    (2): MultiWayTransformer(
      (norm1_fused): LayerNorm((128,), eps=1e-05, elementwise_affine=True)
      (attn_fusion): MultiHeadAttention(q_dims=128, k_dims=128, v_dims=128, h_dims=128, o_dims=128, heads=8, p=0.1, bias=True)
      (norm2_video): LayerNorm((128,), eps=1e-05, elementwise_affine=True)
      (ffn_video): FFN(
        (fc1): Linear(in_features=128, out_features=512, bias=True)
        (act): GELU(approximate=none)
        (drop1): Dropout(p=0.1, inplace=False)
        (fc2): Linear(in_features=512, out_features=128, bias=True)
        (drop2): Dropout(p=0.1, inplace=False)
      )
      (norm2_text): LayerNorm((128,), eps=1e-05, elementwise_affine=True)
      (ffn_text): FFN(
        (fc1): Linear(in_features=128, out_features=512, bias=True)
        (act): GELU(approximate=none)
        (drop1): Dropout(p=0.1, inplace=False)
        (fc2): Linear(in_features=512, out_features=128, bias=True)
        (drop2): Dropout(p=0.1, inplace=False)
      )
    )
    (3): MultiWayTransformer(
      (norm1_fused): LayerNorm((128,), eps=1e-05, elementwise_affine=True)
      (attn_fusion): MultiHeadAttention(q_dims=128, k_dims=128, v_dims=128, h_dims=128, o_dims=128, heads=8, p=0.1, bias=True)
      (norm2_video): LayerNorm((128,), eps=1e-05, elementwise_affine=True)
      (ffn_video): FFN(
        (fc1): Linear(in_features=128, out_features=512, bias=True)
        (act): GELU(approximate=none)
        (drop1): Dropout(p=0.1, inplace=False)
        (fc2): Linear(in_features=512, out_features=128, bias=True)
        (drop2): Dropout(p=0.1, inplace=False)
      )
      (norm2_text): LayerNorm((128,), eps=1e-05, elementwise_affine=True)
      (ffn_text): FFN(
        (fc1): Linear(in_features=128, out_features=512, bias=True)
        (act): GELU(approximate=none)
        (drop1): Dropout(p=0.1, inplace=False)
        (fc2): Linear(in_features=512, out_features=128, bias=True)
        (drop2): Dropout(p=0.1, inplace=False)
      )
    )
    (4): MultiWayTransformer(
      (norm1_fused): LayerNorm((128,), eps=1e-05, elementwise_affine=True)
      (attn_fusion): MultiHeadAttention(q_dims=128, k_dims=128, v_dims=128, h_dims=128, o_dims=128, heads=8, p=0.1, bias=True)
      (norm2_video): LayerNorm((128,), eps=1e-05, elementwise_affine=True)
      (ffn_video): FFN(
        (fc1): Linear(in_features=128, out_features=512, bias=True)
        (act): GELU(approximate=none)
        (drop1): Dropout(p=0.1, inplace=False)
        (fc2): Linear(in_features=512, out_features=128, bias=True)
        (drop2): Dropout(p=0.1, inplace=False)
      )
      (norm2_text): LayerNorm((128,), eps=1e-05, elementwise_affine=True)
      (ffn_text): FFN(
        (fc1): Linear(in_features=128, out_features=512, bias=True)
        (act): GELU(approximate=none)
        (drop1): Dropout(p=0.1, inplace=False)
        (fc2): Linear(in_features=512, out_features=128, bias=True)
        (drop2): Dropout(p=0.1, inplace=False)
      )
    )
    (5): MultiWayTransformer(
      (norm1_fused): LayerNorm((128,), eps=1e-05, elementwise_affine=True)
      (attn_fusion): MultiHeadAttention(q_dims=128, k_dims=128, v_dims=128, h_dims=128, o_dims=128, heads=8, p=0.1, bias=True)
      (norm2_video): LayerNorm((128,), eps=1e-05, elementwise_affine=True)
      (ffn_video): FFN(
        (fc1): Linear(in_features=128, out_features=512, bias=True)
        (act): GELU(approximate=none)
        (drop1): Dropout(p=0.1, inplace=False)
        (fc2): Linear(in_features=512, out_features=128, bias=True)
        (drop2): Dropout(p=0.1, inplace=False)
      )
      (norm2_text): LayerNorm((128,), eps=1e-05, elementwise_affine=True)
      (ffn_text): FFN(
        (fc1): Linear(in_features=128, out_features=512, bias=True)
        (act): GELU(approximate=none)
        (drop1): Dropout(p=0.1, inplace=False)
        (fc2): Linear(in_features=512, out_features=128, bias=True)
        (drop2): Dropout(p=0.1, inplace=False)
      )
    )
  )
  (norm_video): LayerNorm((128,), eps=1e-05, elementwise_affine=True)
  (norm_text): LayerNorm((128,), eps=1e-05, elementwise_affine=True)
  (fc_video): Sequential(
    (0): Linear(in_features=128, out_features=128, bias=True)
    (1): ReLU(inplace=True)
    (2): Dropout(p=0.5, inplace=False)
    (3): Linear(in_features=128, out_features=1, bias=True)
  )
  (fc_text): Sequential(
    (0): Linear(in_features=128, out_features=128, bias=True)
    (1): ReLU(inplace=True)
    (2): Dropout(p=0.5, inplace=False)
    (3): Linear(in_features=128, out_features=1, bias=True)
  )
)
[2024-03-29 12:12:37,058] [Train] Epoch: 1/50 Iter: 5/169 LR: 0.0010 Time: 16.312 Data: 6.126 Loss: 0.0572/0.0611/0.0420/0.0053/0.1656 R1: 0.2744 R2: 0.1325 RL: 0.2606 Cos: 0.6226
[2024-03-29 12:13:51,697] [Train] Epoch: 1/50 Iter: 10/169 LR: 0.0010 Time: 15.620 Data: 6.183 Loss: 0.0484/0.0436/0.0419/0.0050/0.1389 R1: 0.2680 R2: 0.1228 RL: 0.2529 Cos: 0.6287
…
[2024-04-01 06:44:24,525] {'dataset': 'BLiSS', 'data_root': 'data', 'device': 'cuda', 'seed': 12345, 'max_epoch': 50, 'start_epoch': 0, 'batch_size': 64, 'num_workers': 0, 'model_dir': 'logs/BLiSS', 'log_file': 'log.txt', 'lr': 0.001, 'weight_decay': 1e-07, 'nms_thresh': 0.4, 'print_freq': 5, 'eval_freq': 1, 'suffix': '', 'checkpoint': None, 'test': False, 'num_input_video': 512, 'num_input_text': 768, 'num_feature': 512, 'num_hidden': 128, 'dropout_video': 0.1, 'dropout_text': 0.1, 'dropout_attn': 0.1, 'dropout_fc': 0.5, 'num_layers': 6, 'lambda_contrastive_inter': 0.01, 'lambda_contrastive_intra': 0.001, 'ratio': 4}
[2024-04-01 06:44:35,852] Using default tokenizer.
[2024-04-01 06:59:17,910] 
Model_BLiSS(
  (proj_fc_video): Sequential(
    (0): Linear(in_features=512, out_features=128, bias=True)
    (1): Dropout(p=0.1, inplace=False)
  )
  (proj_fc_text): Sequential(
    (0): Linear(in_features=768, out_features=128, bias=True)
    (1): Dropout(p=0.1, inplace=False)
  )
  (multiway_list): ModuleList(
    (0): MultiWayTransformer(
      (norm1_fused): LayerNorm((128,), eps=1e-05, elementwise_affine=True)
      (attn_fusion): MultiHeadAttention(q_dims=128, k_dims=128, v_dims=128, h_dims=128, o_dims=128, heads=8, p=0.1, bias=True)
      (norm2_video): LayerNorm((128,), eps=1e-05, elementwise_affine=True)
      (ffn_video): FFN(
        (fc1): Linear(in_features=128, out_features=512, bias=True)
        (act): GELU(approximate=none)
        (drop1): Dropout(p=0.1, inplace=False)
        (fc2): Linear(in_features=512, out_features=128, bias=True)
        (drop2): Dropout(p=0.1, inplace=False)
      )
      (norm2_text): LayerNorm((128,), eps=1e-05, elementwise_affine=True)
      (ffn_text): FFN(
        (fc1): Linear(in_features=128, out_features=512, bias=True)
        (act): GELU(approximate=none)
        (drop1): Dropout(p=0.1, inplace=False)
        (fc2): Linear(in_features=512, out_features=128, bias=True)
        (drop2): Dropout(p=0.1, inplace=False)
      )
    )
    (1): MultiWayTransformer(
      (norm1_fused): LayerNorm((128,), eps=1e-05, elementwise_affine=True)
      (attn_fusion): MultiHeadAttention(q_dims=128, k_dims=128, v_dims=128, h_dims=128, o_dims=128, heads=8, p=0.1, bias=True)
      (norm2_video): LayerNorm((128,), eps=1e-05, elementwise_affine=True)
      (ffn_video): FFN(
        (fc1): Linear(in_features=128, out_features=512, bias=True)
        (act): GELU(approximate=none)
        (drop1): Dropout(p=0.1, inplace=False)
        (fc2): Linear(in_features=512, out_features=128, bias=True)
        (drop2): Dropout(p=0.1, inplace=False)
      )
      (norm2_text): LayerNorm((128,), eps=1e-05, elementwise_affine=True)
      (ffn_text): FFN(
        (fc1): Linear(in_features=128, out_features=512, bias=True)
        (act): GELU(approximate=none)
        (drop1): Dropout(p=0.1, inplace=False)
        (fc2): Linear(in_features=512, out_features=128, bias=True)
        (drop2): Dropout(p=0.1, inplace=False)
      )
    )
    (2): MultiWayTransformer(
      (norm1_fused): LayerNorm((128,), eps=1e-05, elementwise_affine=True)
      (attn_fusion): MultiHeadAttention(q_dims=128, k_dims=128, v_dims=128, h_dims=128, o_dims=128, heads=8, p=0.1, bias=True)
      (norm2_video): LayerNorm((128,), eps=1e-05, elementwise_affine=True)
      (ffn_video): FFN(
        (fc1): Linear(in_features=128, out_features=512, bias=True)
        (act): GELU(approximate=none)
        (drop1): Dropout(p=0.1, inplace=False)
        (fc2): Linear(in_features=512, out_features=128, bias=True)
        (drop2): Dropout(p=0.1, inplace=False)
      )
      (norm2_text): LayerNorm((128,), eps=1e-05, elementwise_affine=True)
      (ffn_text): FFN(
        (fc1): Linear(in_features=128, out_features=512, bias=True)
        (act): GELU(approximate=none)
        (drop1): Dropout(p=0.1, inplace=False)
        (fc2): Linear(in_features=512, out_features=128, bias=True)
        (drop2): Dropout(p=0.1, inplace=False)
      )
    )
    (3): MultiWayTransformer(
      (norm1_fused): LayerNorm((128,), eps=1e-05, elementwise_affine=True)
      (attn_fusion): MultiHeadAttention(q_dims=128, k_dims=128, v_dims=128, h_dims=128, o_dims=128, heads=8, p=0.1, bias=True)
      (norm2_video): LayerNorm((128,), eps=1e-05, elementwise_affine=True)
      (ffn_video): FFN(
        (fc1): Linear(in_features=128, out_features=512, bias=True)
        (act): GELU(approximate=none)
        (drop1): Dropout(p=0.1, inplace=False)
        (fc2): Linear(in_features=512, out_features=128, bias=True)
        (drop2): Dropout(p=0.1, inplace=False)
      )
      (norm2_text): LayerNorm((128,), eps=1e-05, elementwise_affine=True)
      (ffn_text): FFN(
        (fc1): Linear(in_features=128, out_features=512, bias=True)
        (act): GELU(approximate=none)
        (drop1): Dropout(p=0.1, inplace=False)
        (fc2): Linear(in_features=512, out_features=128, bias=True)
        (drop2): Dropout(p=0.1, inplace=False)
      )
    )
    (4): MultiWayTransformer(
      (norm1_fused): LayerNorm((128,), eps=1e-05, elementwise_affine=True)
      (attn_fusion): MultiHeadAttention(q_dims=128, k_dims=128, v_dims=128, h_dims=128, o_dims=128, heads=8, p=0.1, bias=True)
      (norm2_video): LayerNorm((128,), eps=1e-05, elementwise_affine=True)
      (ffn_video): FFN(
        (fc1): Linear(in_features=128, out_features=512, bias=True)
        (act): GELU(approximate=none)
        (drop1): Dropout(p=0.1, inplace=False)
        (fc2): Linear(in_features=512, out_features=128, bias=True)
        (drop2): Dropout(p=0.1, inplace=False)
      )
      (norm2_text): LayerNorm((128,), eps=1e-05, elementwise_affine=True)
      (ffn_text): FFN(
        (fc1): Linear(in_features=128, out_features=512, bias=True)
        (act): GELU(approximate=none)
        (drop1): Dropout(p=0.1, inplace=False)
        (fc2): Linear(in_features=512, out_features=128, bias=True)
        (drop2): Dropout(p=0.1, inplace=False)
      )
    )
    (5): MultiWayTransformer(
      (norm1_fused): LayerNorm((128,), eps=1e-05, elementwise_affine=True)
      (attn_fusion): MultiHeadAttention(q_dims=128, k_dims=128, v_dims=128, h_dims=128, o_dims=128, heads=8, p=0.1, bias=True)
      (norm2_video): LayerNorm((128,), eps=1e-05, elementwise_affine=True)
      (ffn_video): FFN(
        (fc1): Linear(in_features=128, out_features=512, bias=True)
        (act): GELU(approximate=none)
        (drop1): Dropout(p=0.1, inplace=False)
        (fc2): Linear(in_features=512, out_features=128, bias=True)
        (drop2): Dropout(p=0.1, inplace=False)
      )
      (norm2_text): LayerNorm((128,), eps=1e-05, elementwise_affine=True)
      (ffn_text): FFN(
        (fc1): Linear(in_features=128, out_features=512, bias=True)
        (act): GELU(approximate=none)
        (drop1): Dropout(p=0.1, inplace=False)
        (fc2): Linear(in_features=512, out_features=128, bias=True)
        (drop2): Dropout(p=0.1, inplace=False)
      )
    )
  )
  (norm_video): LayerNorm((128,), eps=1e-05, elementwise_affine=True)
  (norm_text): LayerNorm((128,), eps=1e-05, elementwise_affine=True)
  (fc_video): Sequential(
    (0): Linear(in_features=128, out_features=128, bias=True)
    (1): ReLU(inplace=True)
    (2): Dropout(p=0.5, inplace=False)
    (3): Linear(in_features=128, out_features=1, bias=True)
  )
  (fc_text): Sequential(
    (0): Linear(in_features=128, out_features=128, bias=True)
    (1): ReLU(inplace=True)
    (2): Dropout(p=0.5, inplace=False)
    (3): Linear(in_features=128, out_features=1, bias=True)
  )
)
[2024-04-01 07:00:29,844] [Train] Epoch: 1/50 Iter: 5/169 LR: 0.0010 Time: 14.386 Data: 6.022 Loss: 0.0572/0.0611/0.0420/0.0053/0.1656 R1: 0.2744 R2: 0.1325 RL: 0.2606 Cos: 0.6226
[2024-04-01 07:01:25,602] [Train] Epoch: 1/50 Iter: 10/169 LR: 0.0010 Time: 12.769 Data: 5.260 Loss: 0.0484/0.0436/0.0419/0.0050/0.1389 R1: 0.2680 R2: 0.1228 RL: 0.2529 Cos: 0.6287
…
