…
 4, 'num_workers': 4, 'model_dir': 'logs/CNN', 'log_file': 'log.txt', 'lr': 0.0002, 'weight_decay': 1e-05, 'nms_thresh': 0.4, 'print_freq': 5, 'eval_freq': 1, 'suffix': '', 'checkpoint': None, 'test': False, 'num_input_video': 2048, 'num_input_text': 768, 'num_feature': 512, 'num_hidden': 256, 'dropout_video': 0.1, 'dropout_text': 0.1, 'dropout_attn': 0.1, 'dropout_fc': 0.5, 'num_layers': 2, 'lambda_contrastive_inter': 0.0, 'lambda_contrastive_intra': 0.0, 'ratio': 0}
[2024-03-20 09:38:20,640] Using default tokenizer.
[2024-03-20 09:38:28,197] 
Model_MSMO(
  (proj_fc_video): Sequential(
    (0): Linear(in_features=2048, out_features=256, bias=True)
    (1): Dropout(p=0.1, inplace=False)
  )
  (proj_fc_text): Sequential(
    (0): Linear(in_features=768, out_features=256, bias=True)
    (1): Dropout(p=0.1, inplace=False)
  )
  (multiway_list): ModuleList(
    (0): MultiWayTransformer(
      (norm1_fused): LayerNorm((256,), eps=1e-05, elementwise_affine=True)
      (attn_fusion): MultiHeadAttention(q_dims=256, k_dims=256, v_dims=256, h_dims=256, o_dims=256, heads=8, p=0.1, bias=True)
      (norm2_video): LayerNorm((256,), eps=1e-05, elementwise_affine=True)
      (ffn_video): FFN(
        (fc1): Linear(in_features=256, out_features=1024, bias=True)
        (act): GELU(approximate=none)
        (drop1): Dropout(p=0.1, inplace=False)
        (fc2): Linear(in_features=1024, out_features=256, bias=True)
        (drop2): Dropout(p=0.1, inplace=False)
      )
      (norm2_text): LayerNorm((256,), eps=1e-05, elementwise_affine=True)
      (ffn_text): FFN(
        (fc1): Linear(in_features=256, out_features=1024, bias=True)
        (act): GELU(approximate=none)
        (drop1): Dropout(p=0.1, inplace=False)
        (fc2): Linear(in_features=1024, out_features=256, bias=True)
        (drop2): Dropout(p=0.1, inplace=False)
      )
    )
    (1): MultiWayTransformer(
      (norm1_fused): LayerNorm((256,), eps=1e-05, elementwise_affine=True)
      (attn_fusion): MultiHeadAttention(q_dims=256, k_dims=256, v_dims=256, h_dims=256, o_dims=256, heads=8, p=0.1, bias=True)
      (norm2_video): LayerNorm((256,), eps=1e-05, elementwise_affine=True)
      (ffn_video): FFN(
        (fc1): Linear(in_features=256, out_features=1024, bias=True)
        (act): GELU(approximate=none)
        (drop1): Dropout(p=0.1, inplace=False)
        (fc2): Linear(in_features=1024, out_features=256, bias=True)
        (drop2): Dropout(p=0.1, inplace=False)
      )
      (norm2_text): LayerNorm((256,), eps=1e-05, elementwise_affine=True)
      (ffn_text): FFN(
        (fc1): Linear(in_features=256, out_features=1024, bias=True)
        (act): GELU(approximate=none)
        (drop1): Dropout(p=0.1, inplace=False)
        (fc2): Linear(in_features=1024, out_features=256, bias=True)
        (drop2): Dropout(p=0.1, inplace=False)
      )
    )
  )
  (norm_video): LayerNorm((256,), eps=1e-05, elementwise_affine=True)
  (norm_text): LayerNorm((256,), eps=1e-05, elementwise_affine=True)
  (fc_video): Sequential(
    (0): Linear(in_features=256, out_features=256, bias=True)
    (1): ReLU(inplace=True)
    (2): Dropout(p=0.5, inplace=False)
    (3): Linear(in_features=256, out_features=1, bias=True)
  )
  (fc_text): Sequential(
    (0): Linear(in_features=256, out_features=256, bias=True)
    (1): ReLU(inplace=True)
    (2): Dropout(p=0.5, inplace=False)
    (3): Linear(in_features=256, out_features=1, bias=True)
  )
)
[2024-03-20 09:48:43,258] {'dataset': 'CNN', 'data_root': 'data', 'device': 'cuda', 'seed': 12345, 'max_epoch': 100, 'start_epoch': 0, 'batch_size': 4, 'num_workers': 4, 'model_dir': 'logs/CNN', 'log_file': 'log.txt', 'lr': 0.0002, 'weight_decay': 1e-05, 'nms_thresh': 0.4, 'print_freq': 5, 'eval_freq': 1, 'suffix': '', 'checkpoint': None, 'test': False, 'num_input_video': 2048, 'num_input_text': 768, 'num_feature': 512, 'num_hidden': 256, 'dropout_video': 0.1, 'dropout_text': 0.1, 'dropout_attn': 0.1, 'dropout_fc': 0.5, 'num_layers': 2, 'lambda_contrastive_inter': 0.0, 'lambda_contrastive_intra': 0.0, 'ratio': 0}
[2024-03-20 09:48:54,644] Using default tokenizer.
[2024-03-20 09:49:03,228] 
Model_MSMO(
  (proj_fc_video): Sequential(
    (0): Linear(in_features=2048, out_features=256, bias=True)
    (1): Dropout(p=0.1, inplace=False)
  )
  (proj_fc_text): Sequential(
    (0): Linear(in_features=768, out_features=256, bias=True)
    (1): Dropout(p=0.1, inplace=False)
  )
  (multiway_list): ModuleList(
    (0): MultiWayTransformer(
      (norm1_fused): LayerNorm((256,), eps=1e-05, elementwise_affine=True)
      (attn_fusion): MultiHeadAttention(q_dims=256, k_dims=256, v_dims=256, h_dims=256, o_dims=256, heads=8, p=0.1, bias=True)
      (norm2_video): LayerNorm((256,), eps=1e-05, elementwise_affine=True)
      (ffn_video): FFN(
        (fc1): Linear(in_features=256, out_features=1024, bias=True)
        (act): GELU(approximate=none)
        (drop1): Dropout(p=0.1, inplace=False)
        (fc2): Linear(in_features=1024, out_features=256, bias=True)
        (drop2): Dropout(p=0.1, inplace=False)
      )
      (norm2_text): LayerNorm((256,), eps=1e-05, elementwise_affine=True)
      (ffn_text): FFN(
        (fc1): Linear(in_features=256, out_features=1024, bias=True)
        (act): GELU(approximate=none)
        (drop1): Dropout(p=0.1, inplace=False)
        (fc2): Linear(in_features=1024, out_features=256, bias=True)
        (drop2): Dropout(p=0.1, inplace=False)
      )
    )
    (1): MultiWayTransformer(
      (norm1_fused): LayerNorm((256,), eps=1e-05, elementwise_affine=True)
      (attn_fusion): MultiHeadAttention(q_dims=256, k_dims=256, v_dims=256, h_dims=256, o_dims=256, heads=8, p=0.1, bias=True)
      (norm2_video): LayerNorm((256,), eps=1e-05, elementwise_affine=True)
      (ffn_video): FFN(
        (fc1): Linear(in_features=256, out_features=1024, bias=True)
        (act): GELU(approximate=none)
        (drop1): Dropout(p=0.1, inplace=False)
        (fc2): Linear(in_features=1024, out_features=256, bias=True)
        (drop2): Dropout(p=0.1, inplace=False)
      )
      (norm2_text): LayerNorm((256,), eps=1e-05, elementwise_affine=True)
      (ffn_text): FFN(
        (fc1): Linear(in_features=256, out_features=1024, bias=True)
        (act): GELU(approximate=none)
        (drop1): Dropout(p=0.1, inplace=False)
        (fc2): Linear(in_features=1024, out_features=256, bias=True)
        (drop2): Dropout(p=0.1, inplace=False)
      )
    )
  )
  (norm_video): LayerNorm((256,), eps=1e-05, elementwise_affine=True)
  (norm_text): LayerNorm((256,), eps=1e-05, elementwise_affine=True)
  (fc_video): Sequential(
    (0): Linear(in_features=256, out_features=256, bias=True)
    (1): ReLU(inplace=True)
    (2): Dropout(p=0.5, inplace=False)
    (3): Linear(in_features=256, out_features=1, bias=True)
  )
  (fc_text): Sequential(
    (0): Linear(in_features=256, out_features=256, bias=True)
    (1): ReLU(inplace=True)
    (2): Dropout(p=0.5, inplace=False)
    (3): Linear(in_features=256, out_features=1, bias=True)
  )
)
[2024-03-20 09:49:17,164] [Train] Epoch: 1/100 Iter: 5/36 LR: 0.0002 Time: 2.787 Data: 0.181 Loss: 0.0512/0.0000/0.0000/0.0000/0.0512 R1: 0.1945 R2: 0.0477 RL: 0.1683 Cos: 0.0000
[2024-03-20 09:49:20,140] [Train] Epoch: 1/100 Iter: 10/36 LR: 0.0002 Time: 1.691 Data: 0.091 Loss: 0.0438/0.0000/0.0000/0.0000/0.0438 R1: 0.2212 R2: 0.0575 RL: 0.1882 Cos: 0.0000
…
[2024-03-26 08:26:20,397] {'dataset': 'CNN', 'data_root': 'data', 'device': 'cuda', 'seed': 12345, 'max_epoch': 100, 'start_epoch': 0, 'batch_size': 4, 'num_workers': 4, 'model_dir': 'logs/CNN', 'log_file': 'log.txt', 'lr': 0.0002, 'weight_decay': 1e-05, 'nms_thresh': 0.4, 'print_freq': 5, 'eval_freq': 1, 'suffix': '', 'checkpoint': None, 'test': False, 'num_input_video': 2048, 'num_input_text': 768, 'num_feature': 512, 'num_hidden': 256, 'dropout_video': 0.1, 'dropout_text': 0.1, 'dropout_attn': 0.1, 'dropout_fc': 0.5, 'num_layers': 2, 'lambda_contrastive_inter': 0.0, 'lambda_contrastive_intra': 0.0, 'ratio': 0}
[2024-03-26 08:26:34,577] Using default tokenizer.
[2024-03-26 08:26:48,167] 
Model_MSMO(
  (proj_fc_video): Sequential(
    (0): Linear(in_features=2048, out_features=256, bias=True)
    (1): Dropout(p=0.1, inplace=False)
  )
  (proj_fc_text): Sequential(
    (0): Linear(in_features=768, out_features=256, bias=True)
    (1): Dropout(p=0.1, inplace=False)
  )
  (multiway_list): ModuleList(
    (0): MultiWayTransformer(
      (norm1_fused): LayerNorm((256,), eps=1e-05, elementwise_affine=True)
      (attn_fusion): MultiHeadAttention(q_dims=256, k_dims=256, v_dims=256, h_dims=256, o_dims=256, heads=8, p=0.1, bias=True)
      (norm2_video): LayerNorm((256,), eps=1e-05, elementwise_affine=True)
      (ffn_video): FFN(
        (fc1): Linear(in_features=256, out_features=1024, bias=True)
        (act): GELU(approximate=none)
        (drop1): Dropout(p=0.1, inplace=False)
        (fc2): Linear(in_features=1024, out_features=256, bias=True)
        (drop2): Dropout(p=0.1, inplace=False)
      )
      (norm2_text): LayerNorm((256,), eps=1e-05, elementwise_affine=True)
      (ffn_text): FFN(
        (fc1): Linear(in_features=256, out_features=1024, bias=True)
        (act): GELU(approximate=none)
        (drop1): Dropout(p=0.1, inplace=False)
        (fc2): Linear(in_features=1024, out_features=256, bias=True)
        (drop2): Dropout(p=0.1, inplace=False)
      )
    )
    (1): MultiWayTransformer(
      (norm1_fused): LayerNorm((256,), eps=1e-05, elementwise_affine=True)
      (attn_fusion): MultiHeadAttention(q_dims=256, k_dims=256, v_dims=256, h_dims=256, o_dims=256, heads=8, p=0.1, bias=True)
      (norm2_video): LayerNorm((256,), eps=1e-05, elementwise_affine=True)
      (ffn_video): FFN(
        (fc1): Linear(in_features=256, out_features=1024, bias=True)
        (act): GELU(approximate=none)
        (drop1): Dropout(p=0.1, inplace=False)
        (fc2): Linear(in_features=1024, out_features=256, bias=True)
        (drop2): Dropout(p=0.1, inplace=False)
      )
      (norm2_text): LayerNorm((256,), eps=1e-05, elementwise_affine=True)
      (ffn_text): FFN(
        (fc1): Linear(in_features=256, out_features=1024, bias=True)
        (act): GELU(approximate=none)
        (drop1): Dropout(p=0.1, inplace=False)
        (fc2): Linear(in_features=1024, out_features=256, bias=True)
        (drop2): Dropout(p=0.1, inplace=False)
      )
    )
  )
  (norm_video): LayerNorm((256,), eps=1e-05, elementwise_affine=True)
  (norm_text): LayerNorm((256,), eps=1e-05, elementwise_affine=True)
  (fc_video): Sequential(
    (0): Linear(in_features=256, out_features=256, bias=True)
    (1): ReLU(inplace=True)
    (2): Dropout(p=0.5, inplace=False)
    (3): Linear(in_features=256, out_features=1, bias=True)
  )
  (fc_text): Sequential(
    (0): Linear(in_features=256, out_features=256, bias=True)
    (1): ReLU(inplace=True)
    (2): Dropout(p=0.5, inplace=False)
    (3): Linear(in_features=256, out_features=1, bias=True)
  )
)
[2024-03-26 08:26:59,838] [Train] Epoch: 1/100 Iter: 5/36 LR: 0.0002 Time: 2.334 Data: 0.224 Loss: 0.0512/0.0000/0.0000/0.0000/0.0512 R1: 0.1945 R2: 0.0477 RL: 0.1683 Cos: 0.0000
[2024-03-26 08:27:02,819] [Train] Epoch: 1/100 Iter: 10/36 LR: 0.0002 Time: 1.465 Data: 0.115 Loss: 0.0438/0.0000/0.0000/0.0000/0.0438 R1: 0.2212 R2: 0.0575 RL: 0.1882 Cos: 0.0000
…
