…
[2024-03-20 10:44:22,347] {'dataset': 'Daily_Mail', 'data_root': 'data', 'device': 'cuda', 'seed': 12345, 'max_epoch': 100, 'start_epoch': 0, 'batch_size': 4, 'num_workers': 4, 'model_dir': 'logs/Daily_Mail', 'log_file': 'log.txt', 'lr': 0.0002, 'weight_decay': 1e-07, 'nms_thresh': 0.4, 'print_freq': 5, 'eval_freq': 1, 'suffix': '', 'checkpoint': None, 'test': False, 'num_input_video': 2048, 'num_input_text': 768, 'num_feature': 512, 'num_hidden': 256, 'dropout_video': 0.1, 'dropout_text': 0.1, 'dropout_attn': 0.1, 'dropout_fc': 0.5, 'num_layers': 2, 'lambda_contrastive_inter': 0.001, 'lambda_contrastive_intra': 0.001, 'ratio': 8}
[2024-03-20 10:44:31,222] Using default tokenizer.
[2024-03-20 10:45:31,529] 
Model_MSMO(
  (proj_fc_video): Sequential(
    (0): Linear(in_features=2048, out_features=256, bias=True)
    (1): Dropout(p=0.1, inplace=False)
  )
  (proj_fc_text): Sequential(
    (0): Linear(in_features=768, out_features=256, bias=True)
    (1): Dropout(p=0.1, inplace=False)
  )
  (multiway_list): ModuleList(
    (0): MultiWayTransformer(
      (norm1_fused): LayerNorm((256,), eps=1e-05, elementwise_affine=True)
      (attn_fusion): MultiHeadAttention(q_dims=256, k_dims=256, v_dims=256, h_dims=256, o_dims=256, heads=8, p=0.1, bias=True)
      (norm2_video): LayerNorm((256,), eps=1e-05, elementwise_affine=True)
      (ffn_video): FFN(
        (fc1): Linear(in_features=256, out_features=1024, bias=True)
        (act): GELU(approximate=none)
        (drop1): Dropout(p=0.1, inplace=False)
        (fc2): Linear(in_features=1024, out_features=256, bias=True)
        (drop2): Dropout(p=0.1, inplace=False)
      )
      (norm2_text): LayerNorm((256,), eps=1e-05, elementwise_affine=True)
      (ffn_text): FFN(
        (fc1): Linear(in_features=256, out_features=1024, bias=True)
        (act): GELU(approximate=none)
        (drop1): Dropout(p=0.1, inplace=False)
        (fc2): Linear(in_features=1024, out_features=256, bias=True)
        (drop2): Dropout(p=0.1, inplace=False)
      )
    )
    (1): MultiWayTransformer(
      (norm1_fused): LayerNorm((256,), eps=1e-05, elementwise_affine=True)
      (attn_fusion): MultiHeadAttention(q_dims=256, k_dims=256, v_dims=256, h_dims=256, o_dims=256, heads=8, p=0.1, bias=True)
      (norm2_video): LayerNorm((256,), eps=1e-05, elementwise_affine=True)
      (ffn_video): FFN(
        (fc1): Linear(in_features=256, out_features=1024, bias=True)
        (act): GELU(approximate=none)
        (drop1): Dropout(p=0.1, inplace=False)
        (fc2): Linear(in_features=1024, out_features=256, bias=True)
        (drop2): Dropout(p=0.1, inplace=False)
      )
      (norm2_text): LayerNorm((256,), eps=1e-05, elementwise_affine=True)
      (ffn_text): FFN(
        (fc1): Linear(in_features=256, out_features=1024, bias=True)
        (act): GELU(approximate=none)
        (drop1): Dropout(p=0.1, inplace=False)
        (fc2): Linear(in_features=1024, out_features=256, bias=True)
        (drop2): Dropout(p=0.1, inplace=False)
      )
    )
  )
  (norm_video): LayerNorm((256,), eps=1e-05, elementwise_affine=True)
  (norm_text): LayerNorm((256,), eps=1e-05, elementwise_affine=True)
  (fc_video): Sequential(
    (0): Linear(in_features=256, out_features=256, bias=True)
    (1): ReLU(inplace=True)
    (2): Dropout(p=0.5, inplace=False)
    (3): Linear(in_features=256, out_features=1, bias=True)
  )
  (fc_text): Sequential(
    (0): Linear(in_features=256, out_features=256, bias=True)
    (1): ReLU(inplace=True)
    (2): Dropout(p=0.5, inplace=False)
    (3): Linear(in_features=256, out_features=1, bias=True)
  )
)
[2024-03-20 10:45:36,633] [Train] Epoch: 1/100 Iter: 5/302 LR: 0.0002 Time: 1.019 Data: 0.152 Loss: 0.0641/0.0460/0.0010/0.0033/0.1144 R1: 0.3220 R2: 0.0663 RL: 0.2363 Cos: 0.6652
[2024-03-20 10:45:38,098] [Train] Epoch: 1/100 Iter: 10/302 LR: 0.0002 Time: 0.656 Data: 0.076 Loss: 0.0570/0.0347/0.0010/0.0032/0.0959 R1: 0.2928 R2: 0.0664 RL: 0.2193 Cos: 0.6887
…
