…
r': 'logs/SumMe', 'log_file': 'log.txt', 'lr': 0.001, 'weight_decay': 0.001, 'nms_thresh': 0.4, 'print_freq': 5, 'eval_freq': 1, 'suffix': '', 'checkpoint': None, 'test': False, 'num_input_video': 1024, 'num_input_text': 768, 'num_feature': 512, 'num_hidden': 128, 'dropout_video': 0.1, 'dropout_text': 0.1, 'dropout_attn': 0.5, 'dropout_fc': 0.5, 'num_layers': 2, 'lambda_contrastive_inter': 0.1, 'lambda_contrastive_intra': 3.0, 'ratio': 16}
[2024-03-22 05:43:56,460] Start training on data/SumMe/splits.yml: split 0
[2024-03-22 05:44:06,655] 
Model_VideoSumm(
  (proj_fc_video): Sequential(
    (0): Linear(in_features=1024, out_features=128, bias=True)
    (1): Dropout(p=0.1, inplace=False)
  )
  (proj_fc_text): Sequential(
    (0): Linear(in_features=768, out_features=128, bias=True)
    (1): Dropout(p=0.1, inplace=False)
  )
  (multiway_list): ModuleList(
    (0): MultiWayTransformer(
      (norm1_fused): LayerNorm((128,), eps=1e-05, elementwise_affine=True)
      (attn_fusion): MultiHeadAttention(q_dims=128, k_dims=128, v_dims=128, h_dims=128, o_dims=128, heads=8, p=0.5, bias=True)
      (norm2_video): LayerNorm((128,), eps=1e-05, elementwise_affine=True)
      (ffn_video): FFN(
        (fc1): Linear(in_features=128, out_features=512, bias=True)
        (act): GELU(approximate=none)
        (drop1): Dropout(p=0.5, inplace=False)
        (fc2): Linear(in_features=512, out_features=128, bias=True)
        (drop2): Dropout(p=0.5, inplace=False)
      )
      (norm2_text): LayerNorm((128,), eps=1e-05, elementwise_affine=True)
      (ffn_text): FFN(
        (fc1): Linear(in_features=128, out_features=512, bias=True)
        (act): GELU(approximate=none)
        (drop1): Dropout(p=0.5, inplace=False)
        (fc2): Linear(in_features=512, out_features=128, bias=True)
        (drop2): Dropout(p=0.5, inplace=False)
      )
    )
    (1): MultiWayTransformer(
      (norm1_fused): LayerNorm((128,), eps=1e-05, elementwise_affine=True)
      (attn_fusion): MultiHeadAttention(q_dims=128, k_dims=128, v_dims=128, h_dims=128, o_dims=128, heads=8, p=0.5, bias=True)
      (norm2_video): LayerNorm((128,), eps=1e-05, elementwise_affine=True)
      (ffn_video): FFN(
        (fc1): Linear(in_features=128, out_features=512, bias=True)
        (act): GELU(approximate=none)
        (drop1): Dropout(p=0.5, inplace=False)
        (fc2): Linear(in_features=512, out_features=128, bias=True)
        (drop2): Dropout(p=0.5, inplace=False)
      )
      (norm2_text): LayerNorm((128,), eps=1e-05, elementwise_affine=True)
      (ffn_text): FFN(
        (fc1): Linear(in_features=128, out_features=512, bias=True)
        (act): GELU(approximate=none)
        (drop1): Dropout(p=0.5, inplace=False)
        (fc2): Linear(in_features=512, out_features=128, bias=True)
        (drop2): Dropout(p=0.5, inplace=False)
      )
    )
  )
  (norm_video): LayerNorm((128,), eps=1e-05, elementwise_affine=True)
  (norm_text): LayerNorm((128,), eps=1e-05, elementwise_affine=True)
  (fc_video): Sequential(
    (0): Linear(in_features=128, out_features=128, bias=True)
    (1): ReLU(inplace=True)
    (2): Dropout(p=0.5, inplace=False)
    (3): LayerNorm((128,), eps=1e-05, elementwise_affine=True)
  )
  (fc_video_cls): Linear(in_features=128, out_features=1, bias=True)
  (fc_video_loc): Linear(in_features=128, out_features=2, bias=True)
  (fc_video_ctr): Linear(in_features=128, out_features=1, bias=True)
  (fc_text): Sequential(
    (0): Linear(in_features=128, out_features=128, bias=True)
    (1): ReLU(inplace=True)
    (2): Dropout(p=0.5, inplace=False)
    (3): LayerNorm((128,), eps=1e-05, elementwise_affine=True)
  )
  (fc_text_cls): Linear(in_features=128, out_features=1, bias=True)
  (fc_text_loc): Linear(in_features=128, out_features=2, bias=True)
  (fc_text_ctr): Linear(in_features=128, out_features=1, bias=True)
)
[2024-03-22 05:44:16,121] [Train] Epoch: 1/300 Iter: 5/5 Time: 1.893 Data: 0.238 Loss: 0.1654/5.2685/1.3267/0.1684/4.2220/11.1510
[2024-03-22 05:44:18,366] [Eval]  Epoch: 1/300 F-score: 0.4231/0.4231


[2024-03-22 05:44:21,900] [Train] Epoch: 2/300 Iter: 5/5 Time: 1.299 Data: 0.207 Loss: 0.1437/4.9969/1.2330/0.1638/3.0562/9.5935
[2024-03-22 05:44:24,217] [Eval]  Epoch: 2/300 F-score: 0.4671/0.4671
…
